models/denoising_conv_autoencoder_v1.pth (torch, 53138 bytes, 12 tensors)

encoder.0.weight f4 [8, 3, 3, 3]
0.19285963 0.21475004 -0.00962492 0.22609518 0.01500728 0.07506637 -0.064342 0.14926158
0.18449141 -0.097111 0.21993642 0.06959998 0.1906417 0.08201964 0.12813006 0.0028514285
0.18498449 0.0434225 -0.029258106 0.11650642 -0.034985326 0.043385748 -0.0062941792 0.18470156
-0.09798262 -0.0293945 -0.0125867985 -0.0722008 0.07195431 -0.15763508 0.23065645 -0.09735319
0.19353881 0.06020611 -0.023891643 0.13334675 0.0706702 0.20521232 0.050585568 -0.0061898595
0.11492801 -0.009196021 0.11013713 0.21078934 0.12670726 -0.024972819 0.17695375 0.08717795
0.16905144 -0.039653085 -0.12535818 -0.017257186 -0.08339834 0.206354 0.10898259 0.14015405
0.101697065 0.06008055 0.2195089 -0.08822116 0.05526381 -0.08326847 0.08522484 -0.014850498
0.11656168 -0.0014133808 0.22155783 -0.04693129 -0.06753292 -0.071041845 0.2213865 0.090529695
0.253234 -0.08578385 -0.13137189 -0.07249423 -0.047348283 0.14625008 0.1355246 0.23015265
-0.045455884 -0.15229961 0.06627496 -0.09473649 0.08388379 -0.08902319 0.08641502 -0.15255716
-0.10763097 0.061439402 0.023191001 -0.082246155 0.10219706 0.098663755 -0.18334284 -0.12440548
0.1755756 -0.07353314 -0.062424358 -0.25318903 -0.19350334 -0.014579231 -0.11108673 -0.23548312
-0.0691962 -0.17418532 -0.21549876 -0.13287295 -0.23164903 -0.20102374 0.12924902 -0.015912818
-0.006411898 -0.2305253 -0.14267787 -0.09325522 0.010587798 -0.23800868 -0.16731456 -0.18529293
-0.060132712 -0.14622328 -0.07282384 -0.15086445 -0.16702482 -0.13623503 -0.14931576 -0.24729706
0.07294578 -0.12235214 0.070617735 -0.025495764 -0.20863123 0.07209705 -0.10085869 -0.01064285
-0.090865344 -0.14276978 0.12889402 0.035995755 0.13232097 -0.10417317 0.20029753 -0.10660485
0.02684984 0.105347596 0.14492895 0.22681166 0.2506533 -0.09725748 0.1019212 -0.025883336
0.013536135 -0.06891502 0.2544542 -0.07614523 0.1883228 0.15621103 0.1371021 -0.029940985
0.25166976 0.102537304 -0.032686908 -0.23157743 0.03189283 -0.08535763 -0.14818203 0.120002955
0.004797421 -0.14730202 -0.123315796 -0.06642887 0.045890458 -0.09817061 -0.16706482 -0.12659222
-0.19025375 0.028283805 0.1059064 -0.20912811 -0.022043193 0.028914532 -0.02602179 -0.13678093
0.029089874 0.040708967 0.016190197 -0.0922008 -0.09622807 -0.028285924 -0.09375583 -0.105891444
0.07479479 0.10777172 -0.06428822 -0.066210754 -0.028933678 -0.031539164 -0.0024448256 -0.005443613
-0.22319683 -0.12035999 0.103266716 0.028392132 -0.034445964 -0.14974368 -0.13923007 -0.23665935
-0.13588971 -0.000568924 0.05566353 0.013811793 -0.23642494 -0.1637267 -0.08672472 0.14108117
00000000: ff7c 453e 6fe7 5b3e d7b1 1dbc 7f85 673e
00000010: 18e1 753c 66bc 993d bdc5 83bd 07d8 183e
00000020: 51eb 3c3e 22e2 c6bd 0337 613e 6f8a 8e3d
00000030: 9437 433e eaf9 a73d 8734 033e 08df 3a3b
00000040: 936c 3d3e cbdb 313d b2ae efbc eb9a ee3d
00000050: c64c 0fbd 41b5 313d 673f cebb 6822 3d3e
00000060: 1dab c8bd bccc f0bc dc38 4ebc 03de 93bd
00000070: c85c 933d 176b 21be 3431 6c3e 1c61 c7bd
00000080: 0a2f 463e af9a 763d 68b8 c3bc 0d8c 083e
00000090: 8abb 903d 2e23 523e d032 4f3d 4ed4 cabb
000000a0: 605f eb3d e8aa 16bc 938f e13d 29d9 573e
000000b0: 8cbf 013e cc93 ccbc 5d33 353e 5a8a b23d
000000c0: d21b 2d3e 466b 22bd e55d 00be f15e 8dbc
000000d0: c0cc aabd 774e 533e 4432 df3d 8b84 0f3e
000000e0: 8d46 d03d 0617 763d f1c6 603e 4cad b4bd
000000f0: 4e5c 623d a988 aabd 5c8a ae3d 814f 73bc
00000100: e4b7 ee3d 3141 b9ba 0ee0 623e 063b 40bd
00000110: b34e 8abd 637e 91bd 25b3 623e a267 b93d
00000120: e3a7 813e 71af afbd 5a86 06be db77 94bd
00000130: 46f0 41bd 95c2 153e f6c6 0a3e 23ad 6b3e
00000140: f32f 3abd 6ef4 1bbe 2bbb 873d 3405 c2bd
00000150: 44cb ab3d ca51 b6bd 5cfa b03d f237 1cbe
00000160: a06d dcbd e2a7 7b3d 0efb bd3c ac70 a8bd
00000170: b14c d13d 3910 ca3d 3abe 3bbe 4dc8 febd
00000180: 17ca 333e 8b98 96bd afb0 7fbd fea1 81be
00000190: bd25 46be badd 6ebc 7181 e3bd 7d22 71be
000001a0: bdb6 8dbd a35d 32be b5ab 5cbe d90f 08be
000001b0: 6735 6dbe 2bd9 4dbe db59 043e 995b 82bc
000001c0: e61a d2bb d30e 6cbe 261a 12be 98fc bebd
000001d0: 7278 2d3c 8cb8 73be 8254 2bbe 6ebd 3dbe
000001e0: b84d 76bd 8ebb 15be aa24 95bd 367c 1abe
000001f0: 8e08 2bbe 3281 0bbe 3be6 18be 713b 7dbe
00000200: 9964 953d c293 fabd 08a0 903d 7edc d0bc
00000210: 6da3 55be 9ea7 933d 008f cebd 595f 2ebc
00000220: 9c17 babd 3e32 12be cbfc 033e 4970 133d
00000230: 267f 073e be58 d5bd cc1a 4d3e a553 dabd
00000240: 32f4 db3c 7bc0 d73d 4168 143e 5141 683e
00000250: a155 803e ee2e c7bd 10bc d03d 4a09 d4bc
00000260: aac6 5d3c 5123 8dbd d247 823e 08f2 9bbd
00000270: b1d7 403e c9f5 1f3e 7e64 0c3e cc46 f5bc
00000280: dcda 803e 14ff d13d b5e2 05bd a222 6dbe
00000290: 0ea2 023d fbcf aebd 08bd 17be 1cc4 f53d
000002a0: af33 9d3b 57d6 16be fe8c fcbd dc0b 88bd
000002b0: a2f7 3b3d ac0d c9bd 0a13 2bbe 64a1 01be
000002c0: e1d1 42be 70b3 e73c 74e5 d83d ae25 56be
000002d0: ed93 b4bc 2bde ec3c a62b d5bc 4d10 0cbe
000002e0: e34d ee3c 72be 263d 4ea1 843c c6d3 bcbd
000002f0: 3913 c5bd e2b7 e7bc 0e03 c0bd 9ddd d8bd
00000300: 032e 993d 6bb7 dc3d 8ba9 83bd 8199 87bd
00000310: 5206 edbc 362f 01bd 5e39 20bb 5660 b2bb
00000320: b68d 64be 4c7f f6bd 807d d33d 9e96 e83c
00000330: 3617 0dbd 6856 19be 5492 0ebe d456 72be
00000340: ac26 0bbe d823 15ba 71ff 633d dc4a 623c
00000350: 6119 72be f9a7 27be bb9c b1bd 9577 103e

encoder.0.bias f4 [8]
0.053177115 -0.025542276 0.11042995 -0.056958564 -0.11017893 0.18127881 -0.09766324 -0.042838942
00000000: 3fd0 593d 093e d1bc 1929 e23d 624d 69bd
00000010: 7ea5 e1bd 27a1 393e aa03 c8bd e377 2fbd

encoder.2.weight f4 [16, 8, 3, 3]
-0.06685413 0.13173011 0.12628764 0.100558445 -0.023616143 -0.07552824 -0.05915697 0.12290613
0.07283796 0.16238144 0.13160874 0.079337366 0.056934334 -0.027628124 -0.06628346 -0.09677315
0.06227959 -0.070616364 0.028612573 -0.0010246717 0.03294374 -0.029756123 -0.010326306 0.09095359
-0.0063398127 0.11372118 -0.013757288 -0.13520434 -0.073868394 -0.10260725 -0.085111566 -0.16508323
0.021210939 -0.1205617 0.017239086 0.020050518 0.043717284 -0.13620925 0.0443307 -0.09845067
-0.0042672497 0.06827061 -0.051880024 -0.041356478 -0.061696168 -0.028529849 0.13530387 -0.050113704
0.14464016 0.16637942 0.17370975 0.01684072 -0.047732495 0.054100312 0.018973988 -0.16740027
-0.0677692 -0.116505004 -0.059813164 -0.098039396 -0.07994275 -0.07247525 -0.13748237 0.050081775
0.048766516 -0.059425425 -0.0658426 -0.10288436 -0.15085174 -0.15874112 -0.0015980841 -0.0990873
-0.0046452545 0.06465472 0.01535964 0.036053747 0.080246545 0.030890347 -0.001458611 -0.014340651
-0.07661338 0.18118766 0.0414725 0.09944695 0.024260437 0.082357295 0.15640597 0.059839435
-0.08546151 0.034323663 0.1824775 0.11775074 0.15230177 0.18019761 0.06411422 0.0921055
-0.056597747 0.02388487 0.11904426 -0.00045129962 -0.14113255 -0.15191512 -0.13946924 -0.18112077
-0.14617658 -0.07274691 0.029301805 -0.020510439 -0.14095698 -0.15326898 0.006384848 -0.14077306
-0.07509116 0.002553886 -0.09662395 -0.06293428 -0.053233553 0.061667003 0.038162638 -0.01950854
-0.013872416 0.027191026 0.18820786 -0.016842904 -0.026979608 0.060009565 -0.028584152 -0.0016747647
0.034729432 0.008228241 -0.17987187 -0.04087718 0.035338126 -0.053451072 -0.10002938 0.054796085
-0.10628955 -0.118479915 -0.17034665 -0.062556356 -0.0037882598 -0.025877176 -0.032134123 -0.13160342
-0.057626456 0.05879794 0.15215366 0.12229379 -0.0088841235 0.032298323 -0.056595773 -0.020025374
0.04724522 0.12530032 0.16818787 -0.050895266 0.12564999 -0.023358405 0.08922697 0.101886444
0.018098462 0.11027616 -0.049184658 0.021224858 0.12847075 0.019337596 0.038797628 0.008379312
0.100126274 0.09494059 0.070581876 -0.114990205 -0.14934099 -0.035715006 -0.012172152 -0.106957726
-0.08046883 0.043071445 -0.032920573 -0.032278627 -0.07010454 -0.1532847 -0.15373139 -0.09804946
-0.10735939 -0.007134973 -0.06828693 -0.086081825 0.075933434 0.109802276 0.16209057 0.013351585
0.014683482 0.11692752 -0.012935369 -0.043964185 0.039868068 -0.005986353 -0.13518105 0.018224778
0.050119232 -0.025003359 -0.07020555 -0.15222207 -0.07279647 -0.0057593146 0.025766147 -0.06187198
-0.09792049 0.020609668 -0.14449595 0.019726701 -0.0933417 -0.040282458 -0.069646716 -0.02463398
0.016640853 0.13812059 0.021110624 0.1579151 0.17785093 -0.022552937 -0.033443708 0.14499383
0.11380665 -0.024323918 0.06129656 -0.08377078 -0.023697456 0.09817709 0.066344015 0.06394362
0.009064665 0.107028686 0.06970078 0.003998859 0.043256417 0.09104816 0.122400224 -0.025965273
0.087177984 0.0024894034 -0.06049296 -0.115387134 0.0566626 0.056592133 0.051051788 0.009322225
0.0422387 -0.061498683 -0.11613351 0.020582117 -0.102795966 -0.12964244 -0.07912483 -0.021762505
00000000: d1ea 88bd 42e4 063e 8c51 013e 96f1 cd3d
00000010: a476 c1bc 8dae 9abd 944e 72bd 36b6 fb3d
00000020: 122c 953d 5247 263e 71c4 063e a17b a23d
00000030: fa33 693d 6054 e2bc 9fbf 87bd 0031 c6bd
00000040: e218 7f3d 509f 90bd ea64 ea3c 474e 86ba
00000050: 04f0 063d 1dc3 f3bc ab2f 29bc e045 ba3d
00000060: 34be cfbb a6e6 e83d 4066 61bc 0273 0abe
00000070: 5048 97bd c023 d2bd f94e aebd 940b 29be
00000080: 90c2 ad3c 0de9 f6bd fc38 8d3c fc40 a43c
00000090: e510 333d 707a 0bbe 1c94 353d 81a0 c9bd
000000a0: 49d4 8bbb 76d1 8b3d 2680 54bd 6965 29bd
000000b0: 1fb5 7cbd 6eb7 e9bc 198d 0a3e 0744 4dbd
000000c0: 8d1c 143e 5e5f 2a3e f8e0 313e 8df5 893c
000000d0: 2683 43bd 4a98 5d3d 566f 9b3c fa6a 2bbe
000000e0: 94ca 8abd 2d9a eebd a6fe 74bd e1c8 c8bd
000000f0: 06b9 a3bd e76d 94bd 2ec8 0cbe 8c22 4d3d
00000100: 66bf 473d 1368 73bd 7cd8 86bd 09b5 d2bd
00000110: e178 1abe 088d 22be ce76 d1ba 48ee cabd
00000120: 3837 98bb b269 843d 00a7 7b3c 18ad 133d
00000130: 4d58 a43d c10d fd3c dd2e bfba 0df5 6abc
00000140: 7ae7 9cbd 4289 393e 11df 293d d8aa cb3d
00000150: d3bd c63c f1aa a83d e328 203e 321a 753d
00000160: 7206 afbd f896 0c3d 62db 3a3e 4d27 f13d
00000170: fff4 1b3e b985 383e 514e 833d cfa1 bc3d
00000180: 0ad3 67bd 34aa c33c 7acd f33d 699c ecb9
00000190: 0d85 10be a38f 1bbe 06d1 0ebe b977 39be
000001a0: 50af 15be 55fc 94bd 570a f03c 8205 a8bc
000001b0: 0757 10be 8bf2 1cbe fd37 d13b d026 10be
000001c0: 65c9 99bd 195f 273b c7e2 c5bd b0e3 80bd
000001d0: 6d0b 5abd 8a96 7c3d 6d50 1c3d 60d0 9fbc
000001e0: 2149 63bc b7bf de3c 90b9 403e 21fa 89bc
000001f0: 5704 ddbc 97cc 753d 5029 eabc c783 dbba
00000200: 7340 0e3d becf 063c 5530 38be d46e 27bd
00000210: b6be 103d 83ef 5abd 34dc ccbd dc71 603d
00000220: 56ae d9bd 99a5 f2bd 5a6f 2ebe 8c1d 80bd
00000230: 7444 78bb 5ffc d3bc 129f 03bd 0cc3 06be
00000240: b809 6cbd 1cd6 703d 2bce 1b3e 2b75 fa3d
00000250: b78e 11bc 3f4b 043d f8d0 67bd 410c a4bc
00000260: 3484 413d ba4e 003e 7139 2c3e 8e77 50bd
00000270: 64aa 003e 205a bfbc a1bc b63d d7a9 d03d
00000280: 3a43 943c 78d8 e13d da75 49bd c1df ad3c
00000290: d68d 033e e169 9e3c 43ea 1e3d 6249 093c
000002a0: 010f cd3d 3670 c23d 3b8d 903d fc7f ebbd
000002b0: d8ec 18be e649 12bd b56d 47bc a70c dbbd
000002c0: d8cc a4bd af6b 303d b9d7 06bd 9836 04bd
000002d0: f892 8fbd aaf6 1cbe c36b 1dbe 28ce c8bd
000002e0: 3ddf dbbd 7ecc e9bb 05da 8bbd ab4b b0bd
000002f0: fd82 9b3d 04e0 e03d 12fb 253e 9bc0 5a3c
00000300: fd92 703c b277 ef3d dfee 53bc ca13 34bd
00000310: b34c 233d 2b29 c4bb e76c 0abe 214c 953c
00000320: d349 4d3d d8d3 ccbc edc7 8fbd 1ae0 1bbe
00000330: 5116 95bd a2b8 bcbb 8713 d33c 796d 7dbd
00000340: 8a8a c8bd 9bd5 a83c bff6 13be e499 a13c
00000350: ef29 bfbd 38ff 24bd f0a2 8ebd 33cd c9bc
00000360: 6652 883c 7c6f 0d3e 30f0 ac3c 7fb4 213e
00000370: 8e1e 363e f0c0 b8bc 45fc 08bd 4379 143e
00000380: 7613 e93d f442 c7bc 1a12 7b3d 0490 abbd
00000390: 2b21 c2bc 1211 c93d 5fdf 873d dff4 823d
000003a0: f683 143c db31 db3d 48bf 8e3d dc08 833b
000003b0: a42d 313d 7577 ba3d f8ac fa3d 20b5 d4bc
000003c0: 5f8a b23d 4225 233b 77c7 77bd 1750 ecbd
000003d0: 0b17 683d 27cd 673d ae1b 513d 3fbc 183c
000003e0: 7d02 2d3d 0be6 7bbd 68d7 edbd d49b a83c
000003f0: b186 d2bd fdc0 04be 330c a2bd 4847 b2bc

encoder.2.bias f4 [16]
0.1452793 0.03839785 0.121024825 0.1056972 0.12831573 -0.12196525 0.1055916 -0.10705686
0.13923016 -0.011221139 -0.108490154 0.060041662 -0.025536867 -0.1199359 -0.049258728 0.040765908
00000000: 19c4 143e 1047 1d3d dddb f73d c677 d83d
00000010: 3365 033e ebc8 f9bd 6940 d83d a140 dbbd
00000020: 5a92 0e3e ded8 37bc 1630 debd 3fee 753d
00000030: b132 d1bc f4a0 f5bd 85c3 49bd 27fa 263d

encoder.5.weight f4 [32, 16, 3, 3]
0.043427218 -0.05145366 0.01573503 -0.005641534 -0.017679954 -0.014865143 -0.05638896 -0.0798119
-0.04062525 -0.112774216 -0.08070509 -0.05110601 -0.08011537 -0.06462274 -0.062477224 -0.011110355
-0.060704008 -0.017052962 -0.03773879 -0.006603573 -0.036068894 -0.059867002 -0.051203888 -0.036098927
-0.053719655 -0.004413003 -0.02319059 0.0059700655 -0.007213417 0.019292396 -0.021455115 -0.082483366
-0.0010178455 -0.053134996 -0.017597679 -0.04103961 -0.064474866 -0.060597606 0.026603919 0.026041398
0.0045983535 0.034426812 -0.07445525 0.0049190526 0.030700319 0.068169095 -0.047294557 0.04952917
-0.032226425 0.018340467 0.005194656 -0.06366464 -0.06741782 -0.04184628 0.06293338 0.06768126
-0.040989883 -0.0053289407 0.0317984 -0.03883625 0.062856376 0.09695861 0.038132545 -0.04786587
0.038730282 0.05044343 0.08201452 -0.023404231 -0.052422933 0.04532595 0.01914297 -0.012014514
-0.059357163 -0.07000401 0.027122488 -0.032899857 0.03941169 0.039400607 0.011688758 0.010531094
-0.019654728 0.074496865 -0.052746933 0.058799155 0.004099503 0.061293412 0.02648662 -0.023944348
0.0035939536 0.060394645 -0.04311096 -0.032588936 0.0021085886 -0.013610539 0.054738823 0.07872448
0.0008549595 0.093064375 -0.019276813 -0.072465196 -0.06648108 -0.09794667 -0.07442386 -0.09383367
-0.10899393 0.021416644 0.04103271 0.061508466 0.08773158 0.018123373 0.041130535 -0.030264843
0.057966843 -0.052019462 0.048511256 0.030211745 0.042820342 0.043453895 -0.019270422 0.09204566
0.054097928 0.074972056 0.033205424 0.057271644 0.06729688 0.050438553 0.08048283 0.007120799
0.07866685 0.03571953 0.07196393 0.10485065 0.025842153 -0.01903759 0.0055447803 -0.0043858243
-0.019796824 -0.068819925 0.045422662 0.023790665 -0.09238191 -0.0056228475 -0.018175699 -0.066406935
0.0836764 -0.0047377935 0.018670384 -0.015690539 -0.110323854 0.09625449 0.09524072 0.10435975
0.06666452 0.10057235 0.08138465 0.087307386 -0.046106275 -0.14574601 -0.013445218 0.08157686
0.06375447 0.07304869 0.14584766 0.05372078 0.038816713 -0.035962585 -0.14439076 -0.03675182
0.088753484 0.06095063 0.114313215 0.04406555 -0.019296441 0.03903466 0.03336569 -0.061336223
0.020404015 0.06979028 0.03682194 0.07332975 0.066973776 -0.01642094 0.10086746 0.028570415
-0.150193 0.04223957 0.08127083 0.01968078 0.023566227 -0.06765405 -0.082011126 -0.034056045
-0.020035477 0.096917756 -0.015101437 -0.05204573 0.009111403 0.014021671 -0.08797388 0.050707698
-0.023433087 -0.029904138 0.12181527 -0.033014167 -0.06480827 -0.0223299 -0.089458175 0.009902524
-0.08739257 -0.008640251 -0.09641325 0.044251792 -0.007243616 0.007877947 -0.030479545 -0.018571895
0.081005916 0.04993085 0.06643517 0.06709237 -0.13252747 -0.041725617 0.13938221 -0.039331246
0.023096498 -0.06369139 0.087757766 -0.056512635 -0.08009689 0.039534193 0.039984 -0.018248597
0.05990671 -0.054852538 -0.0008248469 -0.06635378 -0.001052981 0.019284338 0.09620222 -0.054922376
-0.06986678 0.018447697 -0.09719118 0.012171862 -0.04922002 0.07397583 0.0667809 -0.07057187
0.025221996 0.091478705 -0.04762435 0.048439067 -0.07127307 -0.03888071 0.025638424 -0.077490814
00000000: bde0 313d 13c1 52bd c0e6 803c 9edc b8bb
00000010: 8dd5 90bc ee8c 73bc 1cf8 66bd 6c74 a3bd
00000020: aa66 26bd 2bf6 e6bd b648 a5bd 8954 51bd
00000030: 8713 a4bd ed58 84bd 1ee8 7fbd 3508 36bc
00000040: c4a4 78bd a7b2 8bbc fd93 1abd c962 d8bb
00000050: fabc 13bd 1a37 75bd 2bbb 51bd 78dc 13bd
00000060: 2409 5cbd f49a 90bb 31fa bdbc 8aa0 c33b
00000070: 875e ecbb 160b 9e3c a3c2 afbc 0aed a8bd
00000080: 3a69 85ba 15a4 59bd 0229 90bc 2619 28bd
00000090: 660b 84bd 3235 78bd 76f0 d93c c554 d53c
000000a0: c9ad 963b 2103 0d3d fe7b 98bd 0130 a13b
000000b0: 3c7f fb3c 3d9c 8b3d f0b7 41bd 19df 4a3d
000000c0: dbff 03bd bf3e 963c ef37 aa3b 9b62 82bd
000000d0: 5b12 8abd 0167 2bbd 37e3 803d 799c 8a3d
000000e0: 02e5 27bd 659e aebb 0a3f 023d c212 1fbd
000000f0: d8ba 803d 3c92 c63d df30 1c3d 010f 44bd
00000100: a5a3 1e3d c59d 4e3d 3bf7 a73d 3bba bfbc
00000110: 6eb9 56bd b4a7 393d b8d1 9c3c 86d8 44bc
00000120: 7f20 73bd 435e 8fbd fb2f de3c 00c2 06bd
00000130: 276e 213d 8862 213d 3482 3f3c 9c8a 2c3c
00000140: f402 a1bc d091 983d 2b0d 58bd 62d7 703d
00000150: 2055 863b cd0e 7b3d 78fa d83c f026 c4bc
00000160: 8988 6b3b 6060 773d 1e95 30bd fa7b 05bd
00000170: 3f30 0a3b bdfe 5ebc d135 603d 4d3a a13d
00000180: 5c1f 603a 8998 be3d 68ea 9dbc a268 94bd
00000190: 3c27 88bd 4498 c8bd 896b 98bd de2b c0bd
000001a0: 3638 dfbd f571 af3c ea11 283d 4df0 7b3d
000001b0: 9dac b33d 7877 943c 7e78 283d faed f7bc
000001c0: a46e 6d3d 5c12 55bd bdb3 463d 9f7e f73c
000001d0: 6264 2f3d b6fc 313d 01dd 9dbc 6f82 bc3d
000001e0: ca95 5d3d f38a 993d 6902 083d ac95 6a3d
000001f0: f2d2 893d a898 4e3d 2fd4 a43d 9755 e93b
00000200: 161c a13d a44e 123d d361 933d f0bb d63d
00000210: ecb2 d33c b8f4 9bbc fdb0 b53b f6b6 8fbb
00000220: f32c a2bc 76f1 8cbd 1d0d 3a3d a4e4 c23c
00000230: ba32 bdbd dd3f b8bb 34e5 94bc 5c00 88bd
00000240: 885e ab3d 7e3f 9bbb a2f2 983c 7289 80bc
00000250: 79f1 e1bd 1321 c53d 910d c33d 91ba d53d
00000260: 6887 883d e0f8 cd3d ffac a63d 37ce b23d
00000270: efd9 3cbd 713e 15be 5549 5cbc c511 a73d
00000280: b491 823d 8d9a 953d 1759 153e 520a 5c3d
00000290: 46fe 1e3d 814d 13bd 2cdb 13be 1489 16bd
000002a0: 63c4 b53d 5ea7 793d 0c1d ea3d 147e 343d
000002b0: 9213 9ebc cfe2 1f3d 76aa 083d b13b 7bbd
000002c0: 5226 a73c 35ee 8e3d 9ad2 163d e82d 963d
000002d0: 8c29 893d 3585 86bc 9993 ce3d 810c ea3c
000002e0: 32cc 19be 6603 2d3d 5271 a63d 9639 a13c
000002f0: f60d c13c 358e 8abd 73f5 a7bd 5a7e 0bbd
00000300: 7121 a4bc d17c c63d 056c 77bc e72d 55bd
00000310: fe47 153c 27bb 653c a62b b4bd e0b2 4f3d
00000320: bff6 bfbc 86f9 f4bc 497a f93d dd39 07bd
00000330: 33ba 84bd 32ed b6bc d935 b7bd 323e 223c
00000340: e0fa b2bd d78f 0dbc 4f74 c5bd 5e41 353d
00000350: db5b edbb 8112 013c 3db0 f9bc 1624 98bc
00000360: 6ee6 a53d 4a84 4c3d 2a0f 883d b967 893d
00000370: 48b5 07be 7be8 2abd 36ba 0e3e cd19 21bd
00000380: de34 bd3c a270 82bd 58ba b33d cb79 67bd
00000390: d709 a4bd 9bee 213d 43c6 233d 157e 95bc
000003a0: bd60 753d 0ead 60bd 8a3a 58ba 7ee4 87bd
000003b0: 2e04 8aba 30fa 9d3c ab05 c53d 49f6 60bd
000003c0: 5016 8fbd a01f 973c 2b0c c7bd 7d6c 473c
000003d0: ef9a 49bd a480 973d 6dc4 883d fc87 90bd
000003e0: 5c9e ce3c 3059 bb3d c011 43bd 0b68 463d
000003f0: 9ef7 91bd 6141 1fbd ac07 d23c 81b3 9ebd

encoder.5.bias f4 [32]
-0.059780177 -0.008211825 0.1061009 -0.049714576 -0.059985906 -0.038781155 0.065933615 0.015743457
-0.029043388 0.06756936 -0.057958353 0.0028308884 0.113796 0.076089695 -0.030455193 -0.028656825
0.0362599 0.062104236 -0.046311617 0.09418608 0.012137081 -0.07254953 0.050530676 -0.100394025
0.033623777 -0.050521474 -0.0062739337 -0.025266461 -0.08219408 0.013494102 0.0036870984 -0.05030793
00000000: 0fdc 74bd e48a 06bc 6e4b d93d 83a1 4bbd
00000010: c8b3 75bd fdd8 1ebd 3408 873d 6cf8 803c
00000020: 66ec edbc ce61 8a3d bd65 6dbd 6d86 393b
00000030: e10d e93d ead4 9b3d 2b7d f9bc b8c1 eabc
00000040: 4385 143d 0361 7e3d 40b1 3dbd a2e4 c03d
00000050: 9bda 463c d994 94bd 41f9 4e3d 629b cdbd
00000060: 16b9 093d 9bef 4ebd 9295 cdbb 9cfb cebc
00000070: 5f55 a8bd 5e16 5d3c 3fa3 713b b00f 4ebd

decoder.0.weight f4 [32, 16, 3, 3]
0.033324737 0.03982079 0.014956724 -0.08479037 -0.019382613 -0.0577092 0.039034113 -0.078504845
-0.060936645 -0.015053877 0.019979145 -0.052119073 -0.024516417 -0.058178864 -0.10190984 -0.025224108
-0.037566695 -0.022866677 0.06579712 0.058466762 0.07800063 0.018330147 0.008135789 0.10670112
0.097602226 0.08099282 0.09481175 0.029036164 0.03145772 0.03142785 -0.092920825 -0.13615578
-0.09729501 0.041484542 0.027459428 -0.045970783 -0.06029526 -0.05712627 0.02152174 0.06503772
-0.027482986 -0.09196658 0.073671095 0.046045627 -0.062361427 -0.059508715 0.016564747 -0.091010705
0.049174227 -0.06901171 -0.033626378 -0.06570636 -0.120442554 -0.019084593 -0.00213021 -0.013145984
0.09967043 0.047074426 0.018293045 -0.032520656 -0.014187798 0.012157423 0.07328225 -0.13365613
0.039931614 0.06781569 -0.00030376867 -0.077375785 0.020332435 -0.075710446 0.034536965 0.01866506
0.041831825 -0.023443174 -0.010647354 0.017561536 -0.11386956 -0.024241209 0.0644629 0.026457533
-0.03280797 0.003809826 0.008841694 -0.086276375 -0.017599354 0.016337648 -0.023587529 0.0055958377
-0.09849216 -0.08301448 -0.0028818017 -0.08668306 -0.045975722 -0.058551375 -0.023048272 -0.015971681
-0.09821743 -0.000264966 -0.033019107 -0.060755886 0.046949998 -0.05300403 -0.081509985 0.0113626495
-0.0435243 -0.042650867 -0.08474088 -0.0048017674 0.0631572 -0.11319868 -0.078483775 -0.042926908
-0.1266503 -0.040471345 -0.025466783 0.01672197 -0.11153164 -0.0072472105 0.049157515 0.018772596
-0.013946673 0.09470242 -0.04200852 0.07582602 0.044719398 0.05788097 -0.012135095 -0.054687817
-0.054867875 -0.060285278 -0.10723394 0.02425078 -0.0050585456 -0.0068558375 -0.070391886 -0.049875773
0.033008922 0.059314847 -0.025412822 0.12014091 0.0485894 0.053525127 0.1138148 0.07963009
-0.05017286 -0.0125061935 0.016647076 -0.013914906 -0.13884091 -0.062800914 -0.10676649 -0.095504306
-0.13791439 0.043213733 0.044492427 -0.13383844 -0.067330025 -0.11688152 -0.13551258 0.036519423
-0.14318286 -0.1308984 -0.050215244 0.009758504 -0.047698 -0.06172888 0.08567245 0.028091408
0.04592276 0.063480616 0.018351607 0.01929722 -0.10209567 -0.033492796 -0.09703478 -0.09365153
-0.13939911 -0.08660751 -0.12692317 -0.1416559 -0.028752921 -0.07773802 -0.05600591 -0.118448555
-0.024931386 -0.059118938 -0.10764358 -0.16897708 -0.120483235 0.026513392 0.04373481 -0.06286374
0.0070158136 -0.14274645 -0.094629385 -0.052692454 -0.15342915 -0.08689552 0.038410686 0.04403791
-0.05585392 -0.037794888 -0.0031128891 0.00012257737 0.023122618 -0.07068993 0.06260132 -0.11983718
-0.013097573 0.06217375 0.00048285886 0.057047524 0.011975032 0.095319256 0.107881635 0.15061058
0.023958106 -0.09268664 -0.089029044 0.028317783 -0.12538959 -0.12561104 0.021570325 -0.11820908
-0.07800618 -0.03281252 -0.0070780464 -0.040567137 -0.084679335 -0.12871805 -0.056367002 -0.051718827
-0.023380436 -0.08052626 -0.026869902 -0.03962953 -0.033786673 0.0350674 -0.0145401275 -0.053578343
-0.08775492 0.0022789915 0.03301988 0.06052639 0.03452825 0.06673974 0.03414987 0.024708362
-0.05198975 0.016739158 0.08845794 0.12612405 0.041404355 0.02215346 0.02214218 -0.03641283
00000000: 857f 083d 201b 233d 0c0d 753c 93a6 adbd
00000010: 49c8 9ebc 7b60 6cbd 3ce2 1f3d 26c7 a0bd
00000020: b498 79bd 89a4 76bc 4eab a33c cf7a 55bd
00000030: a7d6 c8bc f64c 6ebd 1bb6 d0bd caa2 cebc
00000040: 89df 19bd e652 bbbc a4c0 863d d87a 6f3d
00000050: cbbe 9f3d 1b29 963c f94b 053c 1e86 da3d
00000060: ade3 c73d 90df a53d aa2c c23d 40dd ed3c
00000070: cfd9 003d 7dba 003d 464d bebd 6c6c 0bbe
00000080: 9b42 c7bd b2eb 293d 98f2 e03c dc4b 3cbd
00000090: 2af8 76bd 3cfd 69bd 5c4e b03c 7f32 853d
000000a0: 0024 e1bc f958 bcbd dfe0 963d 579a 3c3d
000000b0: b26e 7fbd 69bf 73bd cbb2 873c d263 babd
000000c0: ea6a 493d 0356 8dbd d0bb 09bd 0e91 86bd
000000d0: 96aa f6bd 4b57 9cbc fe9a 0bbb 4162 57bc
000000e0: 0320 cc3d 1dd1 403d 4cdb 953c 6134 05bd
000000f0: f073 68bc ee2f 473c 0115 963d 27dd 08be
00000100: 558f 233d f4e2 8a3d 2443 9fb9 3277 9ebd
00000110: 3590 a63c 140e 9bbd a276 0d3d 78e7 983c
00000120: d957 2b3d e60b c0bc 3d72 2ebc 36dd 8f3c
00000130: 7234 e9bd 8095 c6bc 2005 843d 78bd d83c
00000140: a661 06bd 46ae 793b c1dc 103c abb1 b0bd
00000150: 852c 90bc 88d6 853c a23a c1bc 4a5d b73b
00000160: 42b6 c9bd 7f03 aabd 9cdc 3cbb e386 b1bd
00000170: 0a51 3cbd 91d3 6fbd bbcf bcbc 0bd7 82bc
00000180: 3826 c9bd 22eb 8ab9 0b3f 07bd 2adb 78bd
00000190: a44e 403d c11a 59bd b5ee a6bd 682a 3a3c
000001a0: 8946 32bd adb2 2ebd a08c adbd 2558 9dbb
000001b0: 9058 813d b6d4 e7bd 1abc a0bd 20d4 2fbd
000001c0: 9eb0 01be 48c5 25bd b79f d0bc 83fc 883c
000001d0: b36a e4bd 027a edbb 6459 493d fdc8 993c
000001e0: 9680 64bc 58f3 c13d 2011 2cbd ac4a 9b3d
000001f0: b02b 373d 9914 6d3d 47d2 46bc 5500 60bd
00000200: 23bd 60bd b2ed 76bd 789d dbbd 92a9 c63c
00000210: 28c2 a5bb efa6 e0bb 9f29 90bd 8a4a 4cbd
00000220: 5d34 073d 20f4 723d 8d2e d0bc 700c f63d
00000230: ae05 473d 2a3d 5b3d bc17 e93d 1a15 a33d
00000240: 0f82 4dbd c7e6 4cbc 735f 883c 59fb 63bc
00000250: 502c 0ebe c49d 80bd 64a8 dabd c397 c3bd
00000260: 6e39 0dbe e200 313d b13d 363d f20c 09be
00000270: 53e4 89bd 945f efbd cfc3 0abe 6495 153d
00000280: 879e 12be 3b0a 06be 80ae 4dbd 22e2 1f3c
00000290: fa5e 43bd 6cd7 7cbd 0a75 af3d f41f e63c
000002a0: 8119 3c3d 2002 823d 1c56 963c 3415 9e3c
000002b0: 8917 d1bd be2f 09bd 2cba c6bd 60cc bfbd
000002c0: a4be 0ebe 475f b1bd 26f8 01be 3f0e 11be
000002d0: 3f8b ebbc 1c35 9fbd 7466 65bd 2895 f2bd
000002e0: e83c ccbc b326 72bd 3d74 dcbd 5408 2dbe
000002f0: eabf f6bd 9d32 d93c 4623 333d b4be 80bd
00000300: e9e4 e53b 202c 12be 0dcd c1bd 0bd4 57bd
00000310: 881c 1dbe 47f6 b1bd 8654 1d3d 1861 343d
00000320: 14c7 64bd d0ce 1abd 9d01 4cbb 1d88 0039
00000330: a56b bd3c e2c5 90bd 1f35 803d 326d f5bd
00000340: 3497 56bc e7a9 7e3d 3828 fd39 aaaa 693d
00000350: ed32 443c be36 c33d 0cf1 dc3d a939 1a3e
00000360: ca43 c43c 7ed2 bdbd dc54 b6bd b2fa e73c
00000370: 2166 00be 2ea0 00be 40b4 b03c 9a17 f2bd
00000380: b4c1 9fbd 6c66 06bd f5ee e7bb ba29 26bd
00000390: 5c6c adbd aace 03be 16e1 66bd 1fd7 53bd
000003a0: 5488 bfbc f4ea a4bd 451e dcbc 9352 22bd
000003b0: e563 0abd d6a2 0f3d b739 6ebc f774 5bbd
000003c0: dab8 b3bd 225b 153b db3f 073d 85ea 773d
000003d0: 7f6d 0d3d d8ae 883d bce0 0b3d 3169 ca3c
000003e0: 34f3 54bd 8f20 893c 7029 b53d aa26 013e
000003f0: 9d97 293d 2c7b b53c 8463 b53c 9f25 15bd

decoder.0.bias f4 [16]
-0.030623527 0.0675111 -0.049662523 0.10564568 0.0419978 0.03524401 -0.0029398063 -0.010615182
-0.051177803 -0.040166292 -0.041336607 -0.0077319006 -0.028042128 0.00094507413 0.062343813 0.020394236
00000000: 31de fabc 4243 8a3d ee6a 4bbd c35c d83d
00000010: e305 2c3d 065c 103d c4a9 40bb 4deb 2dbc
00000020: d19f 51bd 6985 24bd 9350 29bd e25b fdbb
00000030: 9bb8 e5bc dabe 773a 3a5c 7f3d d011 a73c

decoder.2.weight f4 [16, 8, 3, 3]
0.02779773 0.04347963 0.04832558 -0.009942434 -0.081370875 -0.10047576 -0.0932991 0.00049928005
-0.04642748 0.048291236 -0.01014292 0.079794146 0.014606159 -0.017224662 0.08436948 0.038839873
0.015611435 -0.060686663 -0.07361272 0.070482284 0.10517861 -0.0532649 0.026397806 -0.11486448
-0.00061606115 -0.11843562 0.06639801 -0.10195884 -0.008042608 0.106646426 -0.01342713 -0.07234441
0.112414114 -0.04117094 0.04307253 0.064077176 0.037773438 -0.07471419 0.12419655 0.054054227
-0.026370006 -0.05816793 0.00011730708 0.048559908 0.07896417 0.032103263 0.123944804 0.17252472
0.0676448 0.097044736 0.11638497 0.02729829 0.054955408 0.1578905 0.08546682 0.041524008
-0.03551171 -0.01357308 0.016112648 -0.05429008 -0.017570386 0.03179907 0.016544048 -0.0497227
0.009324895 -0.09016381 -0.05206174 0.020629773 -0.040261287 0.009217861 0.13824448 0.037028544
0.09797674 -0.07523448 -0.0017611047 -0.11269071 -0.036004677 -0.095912434 0.11642462 -0.114137456
0.033266842 -0.060335048 -0.004472654 -0.024728753 -0.0034384723 -0.071348734 0.054003265 -0.0086708
-0.027464276 -0.05743271 -0.064408354 -0.045155678 0.1383523 0.1305962 -0.019011727 0.022327114
0.033653967 0.11003135 0.04194451 -0.0033584286 -0.03985273 -0.0028741881 -0.12290809 -0.1451946
-0.03841001 -0.09035999 -0.08945262 -0.049032547 0.09225025 0.07745467 -0.0037751026 0.026991421
0.16812266 0.066493176 0.11662103 -0.00810445 -0.054733142 -0.03784818 0.06558287 0.031099157
-0.012566761 0.17288427 -0.050590403 0.010852917 0.10661851 0.032781232 0.0635181 -0.023361037
-0.050044112 -0.020029852 0.019922933 -0.073592976 0.084211156 0.08350478 -0.0461681 0.01599716
0.07281393 0.058838427 -0.02084652 -0.036037367 0.15931183 0.079973064 0.1501308 0.117012195
-0.02544127 0.078040704 -0.013307489 -0.015589825 -0.029630812 0.08378067 -0.04011314 0.01465894
-0.10166511 0.11002618 -0.002650684 0.052131347 0.04953148 0.1113722 0.07114919 0.09505092
-0.021619905 -0.0058701765 0.017225882 -0.080898695 -0.13108948 -0.08091651 -0.17857164 -0.013749435
-0.020838669 0.07563513 -0.09914088 -0.028721996 0.057425387 0.008778974 0.12366954 0.058821294
0.038859878 -0.010019714 0.10342131 -0.012279771 -0.009200999 0.012814226 -0.15276845 -0.16783836
-0.13366154 -0.018797122 -0.11933679 -0.05400661 -0.045111325 0.052057024 -0.09522681 0.015784658
0.06283414 0.011515092 -0.004463573 -0.07221761 0.020998491 -0.04435209 0.15425356 0.1088143
0.04856814 0.093911596 -0.025885904 0.07486026 0.06696006 0.06241327 0.119726576 0.13323644
-0.051385563 0.11079349 -0.034128565 0.0740929 -0.0056400294 0.0190961 -0.049669642 -0.07364636
-0.097139396 -0.046928767 -0.011199566 0.11828808 0.030796453 0.025167426 -0.09555437 0.0766477
0.081896015 -0.038645428 0.007528098 -0.12520905 -0.035682086 -0.06489806 -0.11545126 0.008946582
-0.015860798 0.020639874 0.12974474 0.06409698 -0.073493294 -0.03008267 0.10205305 -0.10516556
-0.0005223858 0.049065195 -0.06253372 0.098076314 -0.07434675 -0.11392783 -0.08292361 -0.047017884
0.017190468 0.032605883 -0.05940226 0.07640366 -0.034743913 0.118873 0.08653017 -0.010361835
00000000: 11b8 e33c b217 323d 0bf1 453d 97e5 22bc
00000010: c6a5 a6bd 3cc6 cdbd 9913 bfbd 1ee2 023a
00000020: be2a 3ebd 08cd 453d 7d2e 26bc 1d6b a33d
00000030: ac4e 6f3c bc1a 8dbc e8c9 ac3d 8f16 1f3d
00000040: 1bc7 7f3c 9492 78bd 44c2 96bd 0459 903d
00000050: e267 d73d 4c2c 5abd 3640 d83c 123e ebbd
00000060: 2a7f 21ba 608e f2bd aefb 873d cccf d0bd
00000070: 25c5 03bc 7169 da3d 77fd 5bbc 4e29 94bd
00000080: 5f39 e63d dca2 28bd d26c 303d e53a 833d
00000090: 52b8 1a3d c103 99bd c35a fe3d f767 5d3d
000000a0: e905 d8bc 7f41 6ebd c202 f638 c1e6 463d
000000b0: f7b7 a13d b67e 033d c6d6 fd3d 52aa 303e
000000c0: 5b89 8a3d 64bf c63d 3e5b ee3d aaa0 df3c
000000d0: ec18 613d 0cae 213e 3a09 af3d 1415 2a3d
000000e0: ba74 11bd a061 5ebc acfe 833c 465f 5ebd
000000f0: c5ef 8fbc be3f 023d 6287 873c 08aa 4bbd
00000100: 72c7 183c cea7 b8bd b13e 55bd c5ff a83c
00000110: 05e9 24bd 8306 173c f68f 0d3e 3eab 173d
00000120: 07a8 c83d 8914 9abd ded4 e6ba 63ca e6bd
00000130: a479 13bd bd6d c4bd 0870 ee3d e6c0 e9bd
00000140: d042 083d e221 77bd 578f 92bb f493 cabc
00000150: fe57 61bb 491f 92bd 8732 5d3d f90f 0ebc
00000160: c3fc e0bc 903e 6bbd 87e8 83bd 29f5 38bd
00000170: 3aac 0d3e 03bb 053e 7bbe 9bbc 5ae7 b63c
00000180: bed8 093d 1e58 e13d 02ce 2b3d 1519 5cbb
00000190: 9e3c 23bd e05c 3cbb 3db7 fbbd e5ad 14be
000001a0: d153 1dbd a90e b9bd ef32 b7bd 5ad6 48bd
000001b0: b3ed bc3d 8ea0 9e3d b667 77bb 1d1d dd3c
000001c0: 5928 2c3e 932d 883d 02d7 ee3d 87c8 04bc
000001d0: dc2f 60bd b106 1bbd 5050 863d a9c3 fe3c
000001e0: d1e4 4dbc 9308 313e e237 4fbd 6fd0 313c
000001f0: ce5a da3d 9d45 063d c715 823d a55f bfbc
00000200: 0efb 4cbd a515 a4bc 6b35 a33c eab7 96bd
00000210: e676 ac3d 8e04 ab3d c31a 3dbd 7a0c 833c
00000220: 781f 953d 9000 713d 52c6 aabc eb9b 13bd
00000230: a422 233e ebc8 a33d e3bb 193e 17a4 ef3d
00000240: 366a d0bc ced3 9f3d a807 5abc 776c 7fbc
00000250: 51bc f2bc 3395 ab3d ad4d 24bd 0d2c 703c
00000260: cc35 d0bd 6855 e13d 19b7 2dbb ae87 553d
00000270: 85e1 4a3d 1c17 e43d abb6 913d 0faa c23d
00000280: 3a1c b1bc 9c5a c0bb 4b1d 8d3c 37ae a5bd
00000290: 523c 06be 8eb7 a5bd 7cdb 36be 4f45 61bc
000002a0: dbb5 aabc 97e6 9a3d 600a cbbd 644a ebbc
000002b0: e236 6b3d b0d5 0f3c 7546 fd3d 99ee 703d
000002c0: 892b 1f3d ba29 24bc 8dce d33d 1831 49bc
000002d0: c9bf 16bc c2f2 513c 556f 1cbe d2dd 2bbe
000002e0: 92de 08be 6cfc 99bc d966 f4bd 0936 5dbd
000002f0: a7c6 38bd bf39 553d 4606 c3bd d44e 813c
00000300: 30af 803d cca9 3c3c 2a43 92bb d4e6 93bd
00000310: 0705 ac3c 8aaa 35bd a5f4 1d3e 08da de3d
00000320: 63ef 463d b954 c03d ad0e d4bc 5650 993d
00000330: 5b22 893d 0fa5 7f3d 3533 f53d 226f 083e
00000340: ab79 52bd b3e7 e23d 65ca 0bbd 05be 973d
00000350: ffcf b8bb 6d6f 9c3c 6572 4bbd e7d3 96bd
00000360: 05f1 c6bd 6138 40bd 627e 37bc 0541 f23d
00000370: d848 fc3c eb2b ce3c 02b2 c3bd 78f9 9c3d
00000380: 19b9 a73d ab4a 1ebd 43ae f63b cd36 00be
00000390: 6127 12bd 46e9 84bd b671 ecbd af94 123c
000003a0: 81ee 81bc f414 a93c cedb 043e 4745 833d
000003b0: a783 96bd ee6f f6bc 3101 d13d 0b61 d7bd
000003c0: b8f0 08ba 96f8 483d ae11 80bd 3cdc c83d
000003d0: 1c43 98bd fe52 e9bd dbd3 a9bd d395 40bd
000003e0: 06d3 8c3c bf8d 053d c94f 73bd 8679 9c3d
000003f0: a24f 0ebd b073 f33d bb36 b13d b0c4 29bc

decoder.2.bias f4 [8]
-0.030404152 -0.16332367 0.019293888 -0.038985364 0.03669552 0.023244562 -0.15875864 -0.033430167
00000000: 2112 f9bc 523e 27be 370e 9e3c 1eaf 1fbd
00000010: 0b4e 163d 616b be3c a091 22be 12ee 08bd

decoder.4.weight f4 [8, 3, 3, 3]
-0.07116023 -0.17299235 -0.19118012 0.122634016 -0.20214945 -0.062344216 -0.16170023 0.2022265
0.09224504 0.062763974 -0.1324166 -0.20152123 -0.08135895 0.06321787 -0.029122336 -0.13373499
-0.20542605 0.13021214 0.005467191 0.10334591 -0.20117556 -0.017783044 0.1302994 -0.23018701
-0.2146664 -0.2059788 -0.12869431 -0.046638872 0.15186164 -0.09488909 0.17940411 0.17103799
0.15776363 -0.18317457 0.13249889 0.08091355 0.118775204 -0.19712527 -0.06414062 -0.13439901
-0.12021918 0.017212156 -0.033890318 0.05910607 -0.16573036 -0.08547394 0.04262208 -0.09924371
-0.030944908 -0.18808754 0.1092586 -0.027236126 0.030648328 -0.018755857 0.069022045 0.19188832
-0.030756785 0.2052571 -0.045797683 0.033102542 -0.071593694 0.07120546 -0.1386967 0.09061267
-0.05601254 0.20317213 0.2382508 0.17355086 -0.1294842 0.11834051 -0.10486052 0.04685332
-0.07822289 0.13437231 0.017034102 0.09859902 0.102692366 0.1633418 0.15963027 0.015935484
-0.09736198 0.032139722 -0.041156992 -0.06514311 0.009067624 0.16216458 0.14075708 -0.066119775
-0.06285488 0.13666144 0.07068786 -0.19913068 -0.04001324 -0.18722032 -0.10530091 -0.21177825
-0.19271982 -0.16744131 -0.07505157 0.03838577 -0.21516758 -0.10468106 -0.018508747 -0.010311296
-0.061090518 -0.18028225 -0.054070044 0.029568056 -0.12130159 -0.09054326 0.086166546 0.046515036
0.170843 0.10247175 0.15509938 -0.09921471 0.008747811 0.0071411757 -0.014570979 0.0023120195
0.1458151 -0.05794635 -0.008819672 -0.047743257 0.058158655 0.056446757 0.0047633853 0.08224092
-0.1155336 0.16084008 0.07999455 0.15801932 -0.15255219 0.12679642 0.14111814 0.18796773
0.14619695 -0.02490994 0.013579001 0.049286664 0.10676557 -0.1185093 0.024618352 -0.115364395
-0.0859966 -0.026717717 -0.014654036 0.10980529 0.20942368 0.0062874467 0.004723702 0.109713696
0.08508043 0.23194079 0.033544064 0.065720245 -0.11437462 0.10850237 0.09407449 0.11107819
-0.0075285807 0.02253615 0.09470548 0.06261129 0.0044480776 -0.08309457 0.12558062 -0.023271412
0.12739886 0.16037661 0.16418122 -0.005322386 0.015994977 0.12066455 -0.065390974 -0.09260123
0.1716263 0.15944688 0.12871672 0.1025373 -0.09763439 0.04658952 -0.094037905 0.020977255
0.09459585 -0.12437216 -0.15492518 -0.18252996 -0.07115145 0.06531488 0.21647803 0.086687006
-0.04909061 0.016405338 -0.00559836 0.09889287 0.13524634 -0.059185367 0.08669185 0.12278648
0.016191252 -0.081592955 0.17738779 -0.1297794 0.110855 0.059854727 -0.031524826 -0.04284049
0.02542637 -0.078310005 0.0041891574 0.16593495 -0.0008932092 -0.097722046 0.13224909 0.1525888
00000000: 74bc 91bd e824 31be b9c4 43be 8b27 fb3d
00000010: 4400 4fbe a65c 7fbd bf94 25be 7714 4f3e
00000020: f8ea bc3d 668a 803d 3898 07be 955b 4ebe
00000030: 859f a6bd 5f78 813d f791 eebc d3f1 08be
00000040: 355b 52be 5556 053e 1f26 b33b 05a7 d33d
00000050: f700 4ebe bfad 91bc 356d 053e 25b6 6bbe
00000060: 82d1 5bbe 1bec 52be 71c8 03be 6708 3fbd
00000070: 9e81 1b3e 3655 c2bd b6b5 373e 9524 2f3e
00000080: ca8c 213e 1d92 3bbe caad 073e 01b6 a53d
00000090: 6a40 f33d 35db 49be 285c 83bd e59f 09be
000000a0: 7935 f6bd 8200 8d3c 93d0 0abd 3519 723d
000000b0: 38b5 29be f60c afbd 7d94 2e3d 4940 cbbd
000000c0: 2d80 fdbc 059a 40be f9c2 df3d 4c1e dfbc
000000d0: 3412 fb3c e2a5 99bc 6e5b 8d3d 5f7e 443e
000000e0: a7f5 fbbc eb2e 523e 5a96 3bbd 8896 073d
000000f0: b79f 92bd 2bd4 913d 8206 0ebe 2393 b93d
00000100: 686d 65bd 5b0c 503e 05f8 733e 51b7 313e
00000110: 8297 04be 825c f23d 1dc1 d6bd 44e9 3f3d
00000120: 5333 a0bd e598 093e 1a8b 8b3c 48ee c93d
00000130: 6050 d23d 1343 273e 1e76 233e 228b 823c
00000140: b865 c7bd f1a4 033d 3c94 28bd c069 85bd
00000150: 5f90 143c 790e 263e a022 103e ce69 87bd
00000160: 0fba 80bd faf0 0b3e ccc4 903d eae8 4bbe
00000170: ece4 23bd afb6 3fbe 01a8 d7bd 66dc 58be
00000180: 5858 45be bc75 2bbe a3b4 99bd 663a 1d3d
00000190: e454 5cbe 0663 d6bd a89f 97bc b6f0 28bc
000001a0: 0d3a 7abd e99b 38be 8d78 5dbd b538 f23c
000001b0: f86c f8bd bf6e b9bd 1678 b03d 8d86 3e3d
000001c0: 78f1 2e3e b5dc d13d 5fd2 1e3e 1531 cbbd
000001d0: fb52 0f3c 8600 ea3b 1ebb 6ebc 4085 173b
000001e0: 8e50 153e 2759 6dbd 6380 10bc 6f8e 43bd
000001f0: c537 6e3d b734 673d 2c16 9c3b ed6d a83d
00000200: e19c ecbd 43b3 243e 2fd4 a33d d1cf 213e
00000210: a436 1cbe ecd6 013e 4681 103e 9d7a 403e
00000220: a7b4 153e ee0f ccbc 757a 5e3c d0e0 493d
00000230: e8a7 da3d 01b5 f2bd 6dac c93c 2b44 ecbd
00000240: fc1e b0bd 1ddf dabc 7b17 70bc 99e1 e03d
00000250: 2973 563e ed06 ce3b 49c9 9a3b 93b1 e03d
00000260: a63e ae3d e381 6d3e 8065 093d 5698 863d
00000270: 3e3d eabd 7e36 de3d 20aa c03d f67c e33d
00000280: 50b2 f6bb bb9d b83c f2f4 c13d 593a 803d
00000290: 2ec1 913b 7c2d aabd 3598 003e b0a3 bebc
000002a0: d974 023e c439 243e 1f1f 283e 6967 aebb
000002b0: e607 833c fa1e f73d b4eb 85bd b7a5 bdbd
000002c0: cebe 2f3e 0b46 233e 51ce 033e 13ff d13d
000002d0: 8af4 c7bd a7d4 3e3d f296 c0bd 7ed8 ab3c
000002e0: 78bb c13d d5b6 febd b5a4 1ebe 22e9 3abe
000002f0: dab7 91bd cfc3 853d 6bac 5d3e f588 b13d
00000300: 3c13 49bd 7d64 863c 7372 b7bb 5888 ca3d
00000310: 047e 0a3e 5b6c 72bd 7f8b b13d 7a77 fb3d
00000320: 84a3 843c 351a a7bd 25a5 353e e4e4 04be
00000330: f207 e33d 3b2a 753d 2d20 01bd 8279 2fbd
00000340: f64a d03c ff60 a0bd 3345 893b daea 293e
00000350: 4126 6aba 7f22 c8bd 4e6c 073e 3d40 1c3e

decoder.4.bias f4 [3]
0.12459239 -0.040060937 -0.15130314
00000000: 4c2a ff3d f016 24bd 36ef 1abe
