models/denoising_conv_autoencoder_v2.pth (torch, 794218 bytes, 20 tensors)

encoder.0.weight f4 [8, 3, 3, 3]
00000000: 12be babd 6ffa 44ba feb9 90bd 91fd 64bd
00000010: 84d2 52bd cca6 163e 1f70 0dbd 8773 49be
00000020: f14a 02be 5284 203e 28fb cd3d 7816 c23d
00000030: d4bc 3fbe bbc3 a83b 310e 44be 081a 21be
00000040: 4bef 033e 5f5a de3d f55b 513d 9cb9 50be
00000050: a149 1ebc ea40 e2bd 10a3 aa3d d22d 32be
00000060: 124a 1e3e 4ca9 e53d c0da d7bd f7c1 16be
00000070: 765c 96bd 3f25 b83d b56d 933d 931d 553b
00000080: 9abc 31be baca a2bd d12c 17be ae8e 06be
00000090: 5fda 1a3d 494d 1e3d 38dd ba3d 2079 49be
000000a0: c0a1 b6bd cf2a 08be fbd8 8abd ca64 2fbe
000000b0: b32a 13be 29a4 37be 5c5e 1cba 4a68 27be
000000c0: 1771 243e 085e 9abc f661 013e 77e1 a73d
000000d0: 8ced e0bd e41d 993d 6d10 6d3e f44e 0ebe
000000e0: 6e3e 0cbd 9ca1 5b3e 835e c23d 4b7a 233e
000000f0: 3d9d 26bc 01e4 83bd 1bb0 bf3d 52bb 89bd
00000100: dbef 01be fb43 5e3c dcb8 833d 9450 5d3d
00000110: 1230 4a3e 6a0b 6f3e e1fb 0d3e 1c23 153e
00000120: 848f 17be 67c3 463e dea6 0e3e a8bf b7bd
00000130: 06e1 0b3d f748 d83d 7c27 f93c 6616 463e
00000140: 020e 353d c107 813d 40a6 bd3d 658b 3dbc
00000150: c4f1 333d 6f72 91bc 4a26 d63d 676a 623e
00000160: e2d3 b43c 2084 e33c 1eaa 1dbd 0454 0fbe
00000170: c3ab f83d d69b 393e cdda b8bd 252c 033e
00000180: 3865 dc3d c6bd fabb 857e 12be 20d1 a03d
00000190: 6390 ff3d 5a32 613d f275 6f3e cc80 c63c
000001a0: 3e9e 153e f6f8 0e3e 5f62 523e 0177 0e3e
000001b0: b8cd 24be f347 06bd 27a5 2dbd 813f 08bd
000001c0: ee46 1cbc 1442 55be 923c 883d a3c6 debc
000001d0: a992 e5bc 937a 4f3d 90e6 4fbe e078 9e3d
000001e0: f4fa 0bbd aede ec3d 696a 3f3d 31de 22be
000001f0: 06e0 fdbd 13d0 4dbe e054 89bc 4687 24be
00000200: da9e 2fbe 0585 cfbd 25cf 2c3d 8be1 e53d
00000210: b6e5 233e 660d 4f3c e7ef 7e3c 69eb e83d
00000220: 1fcc 003e 260c 6b3d f8ea 8ebb 73c6 6fbc
00000230: d845 02be d83a 6cbe 767e 85bd feb7 83bd
00000240: de15 7c3d e51e 4cbe 01ed b1bd 5b97 0fbe
00000250: d897 33be 05be ba3d 13c9 93bd 953d 5bbd
00000260: e4e4 cbbd dfa3 e7bd 8560 9fbd 78d8 d43d
00000270: af31 563d a76c 993d 8bb0 19be e508 c0bc
00000280: ddd5 ffbd fe67 51be 990d c43c 9f4f 823d
00000290: 5062 10bd a497 1ebd a16b bd3d 02b5 083e
000002a0: ce59 e3bc e350 ccbc f5ce 4cbe 824a 393e
000002b0: 5130 a53c 321a 8cbd b36f c6bc 56ae debd
000002c0: a553 353e 2280 c23d 1992 0cbd b3f6 11be
000002d0: e19b b23d 5ab5 a6bd 585a b8bd 4df7 82bd
000002e0: 16c0 0abc 82ed 2b3e 5293 31be 358e 34be
000002f0: 0460 953d 417c 3c3e 5473 413d 5592 bb3d
00000300: 37d3 44bd b177 05bd cb43 6fbc 453a c83d
00000310: d67b bc3d ee69 0cbc 7d43 95bd 3111 343e
00000320: ba89 4d3b 4a61 ab39 95a4 493e 00a0 e43d
00000330: cc5a 063e 1548 e13d 050a 1e3e a625 d73d
00000340: 27ab 84bd f9e2 65bc f447 97bd 6dca 2f3d
00000350: 91d4 d03d cac4 fbbd 9e19 553e 1e22 c33d
-0.09118284 -0.0007514124 -0.07066725 -0.055905882 -0.051470295 0.14712065 -0.034530755 -0.19672976
-0.127239 0.15675476 0.1005767 0.09476942 -0.18724376 0.005150286 -0.19146039 -0.15732586
0.12884252 0.10857081 0.051113088 -0.20383304 -0.009661109 -0.110475376 0.08331883 -0.17400292
0.15457943 0.112139314 -0.1053977 -0.14722429 -0.07341854 0.08991479 0.07198659 0.0032518848
-0.17357102 -0.07948823 -0.1476319 -0.13140365 0.03780591 0.038647924 0.091242254 -0.19675112
-0.0891757 -0.1329758 -0.06779667 -0.17128292 -0.14371757 -0.17933716 -0.00059649884 -0.16348377
0.16058765 -0.018843666 0.12635025 0.08197301 -0.109828085 0.07476404 0.23150797 -0.13897306
-0.034239225 0.21448368 0.09490683 0.1596462 -0.010169324 -0.06439973 0.09359761 -0.06725182
-0.12689154 0.0135660125 0.064317435 0.054031923 0.197449 0.23344198 0.13865615 0.14564174
-0.1480084 0.19410478 0.13930842 -0.089721024 0.034150146 0.10560792 0.030414335 0.19344482
0.044202812 0.06300307 0.09260225 -0.011568879 0.043931738 -0.017754762 0.10456522 0.22110902
0.02207369 0.027772963 -0.038492315 -0.13996893 0.12142136 0.18125853 -0.09026108 0.12809809
0.107614934 -0.0076520173 -0.14306076 0.078523874 0.124787115 0.05497966 0.23384836 0.024231337
0.14611146 0.13962159 0.20545338 0.13912584 -0.160941 -0.03278346 -0.04239383 -0.033263687
-0.009538395 -0.20825988 0.06652178 -0.027194327 -0.028024035 0.050654005 -0.20302796 0.07737899
-0.034174874 0.1156591 0.04673234 -0.15905072 -0.12396245 -0.20098905 -0.016764104 -0.16067228
-0.17150441 -0.10132793 0.042189736 0.112246595 0.16005597 0.012637472 0.015560127 0.11373026
0.12577866 0.057384633 -0.0043615066 -0.014634716 -0.12721956 -0.23069322 -0.06518261 -0.06431578
0.06154429 -0.1993366 -0.08687783 -0.14022581 -0.17538393 0.091182746 -0.07216086 -0.053525526
-0.09955767 -0.11310553 -0.077820815 0.10392851 0.052293476 0.07491427 -0.15008752 -0.023441741
-0.12491963 -0.20449826 0.023932265 0.06362843 -0.035250008 -0.038718835 0.09249044 0.13350299
-0.027752783 -0.024940914 -0.20000823 0.18094829 0.02016464 -0.06840934 -0.024223184 -0.10873096
0.17707689 0.09497096 -0.034319017 -0.14254265 0.08721138 -0.08140059 -0.09001607 -0.06394825
-0.008468648 0.16789821 -0.17341354 -0.17632373 0.07293704 0.18406774 0.047229126 0.0915877
-0.048052993 -0.03258485 -0.014603565 0.09776739 0.09203307 -0.0085701775 -0.07288263 0.17584683
0.003136261 0.00032688148 0.1969169 0.1116333 0.13120574 0.11000077 0.1543351 0.10505228
-0.06477957 -0.014031165 -0.07386771 0.042917658 0.10196794 -0.12293394 0.20810553 0.09527992

encoder.0.bias f4 [8]
00000000: 57b4 19be 772c 95bd 2b56 643d 3b00 97bd
00000010: b5e0 003c 794a c23d 47f6 03be 1232 d93c
-0.150102 -0.072838716 0.05574624 -0.07373091 0.007866074 0.09486861 -0.12886916 0.026513133

encoder.3.weight f4 [16, 8, 3, 3]
00000000: 1bd9 e53d 216c 4e3d 934d 18bd aad1 c03d
00000010: 3e5c 24bd 4464 cbbd a1e6 d5bd 7197 57bd
00000020: 1abe de3d 423e 2dbd 63ad e4bd 312c d0bc
00000030: 3d53 ef3d 3181 b73c 9611 adbc ee34 be3d
00000040: 991c 59bd 5c28 8dbd 226a d43d 93cd a03d
00000050: 5ef6 e53d 49ec f1bc 17de e1bc 1402 193b
00000060: 3136 e3bd 691e b13d 40fa cd3c cf20 e93d
00000070: 7354 f93d 0f44 f83d d709 c53c b927 98bc
00000080: d6e4 423d a1fd 943b 33de 0bbc e152 7fbb
00000090: 5e75 963d a523 063d cbab aabd b976 b73d
000000a0: e4e9 5ebd 1122 a4bd b049 fc3d df24 a83d
000000b0: c882 d83d adf9 4e3d a467 e0bd 3c2c 6e3d
000000c0: aa7b aebd f28d bbbc f61f 9b3d 9845 243d
000000d0: 52c3 a5bd 2832 73ba b786 c63d 59dd aa3d
000000e0: e6ed f23d 0527 a2bd bc70 523d 5240 e73c
000000f0: 6ecf e0bd 5a77 5e3d cf3f e33d f270 803d
00000100: cb02 683d 8f07 2fbd 5489 b73c b7fb c03b
00000110: bd2e 85bd f0a8 0cbe d3a2 f3bd a5d1 c9bd
00000120: 74ef 81bc f1d5 cd3b 7fb0 0cbe 2b1f 183d
00000130: e19a bdbd 0580 f5bd cddd fc3b c372 67bc
00000140: 8e18 c0bd 6134 35bd e7aa 01bd 4ce4 93ba
00000150: 75dc 9fbd 4ebe e6bd 88fb dfbc add2 5e3d
00000160: a1d4 f3bd a4fc ebbd c8d5 4d3d b7f5 c43d
00000170: 01c6 fd3d 29b5 f93c 23e3 a83c 2017 643d
00000180: 0d30 f2bc 3001 e03b 5632 bcbc 20be 513d
00000190: 9996 093e 744b 443d 433b 573d 1e52 283e
000001a0: 8fd8 5d3d 627d 963d 863a 253d 8e02 153e
000001b0: b380 99bd 2d9c eebc b067 16be 1e89 9fbd
000001c0: 5374 34be fe11 04be 32a6 803c 64c7 82bd
000001d0: 70a6 383d 79ea 073d 35d5 e1bd 02c4 fbbd
000001e0: 8a87 0c3d f788 973b 01b9 0bbe 360a c3bd
000001f0: 12ff 65bd b164 5a3d ddda c03c f1b1 6cbc
00000200: ff1d fabc 8e65 74bd 84df dbbd 8327 f3bb
00000210: 1028 903d a595 323d 275b e1bd 6aa9 c33d
00000220: ebf6 263e 63f2 723d b39e dd3d a9e1 b63d
00000230: 4178 203e 91a5 8abc acc6 063e 3664 a5bd
00000240: 1689 c0bc ba0e a7bd de03 d8bd 8177 e03c
00000250: 0513 9dbd 52bb f1bb 51af 98bd d6ba e93c
00000260: c401 96bd c747 353d 279f 483d 493c 50bd
00000270: 7f03 d13d 9555 70bc c1e7 ca3d d375 943c
00000280: 3d59 d03d 10e7 903d 9ff4 353d ee4e 503c
00000290: b039 4abd f277 ecbb c59a 8abd d937 43bd
000002a0: 1759 ddbd 4a35 adbd 39c0 8ebd cb47 23bd
000002b0: 861b ba3b 51c9 dbbd 9836 6ebd 98dd 14bd
000002c0: 65b2 a73d caaf 333d b5ef 9a3d 2d91 0fbe
000002d0: a413 423d 2cdd 6a3d 9b57 d43d b11d 383d
000002e0: b41c 1a3d d37b 87bd 6268 fdbc 4325 093d
000002f0: ae2e 53bd 8822 80bd 1516 fc3d 8069 16bd
00000300: 59bb 6dbd 45f5 4f3d 5388 8fbc 964c 1fbc
00000310: 2178 4abd c4ef c23d 9829 ef3d 5652 f83c
00000320: 26a6 ce3d 63e9 c53d a101 923d 5981 f13d
00000330: c18d 35bd 9b56 a53d 15c7 f43c d15b bd3b
00000340: 0cbc fe3c 2086 d8bd 176e c7bd 64d7 a3bd
00000350: d59c 99bd 0491 89bd 7b1a 73bd 33a3 8ebb
00000360: fa92 d5bc d2e9 36bd ab0d 373d 1df8 8bbc
00000370: 1118 5f3d a806 86bd a16f 2f3d 3ed9 8abd
00000380: 3101 c03d 1a0e 093e 9145 d8bc 35a9 073e
00000390: 175a c2bd d393 fe3d 6110 c63d 3756 b2bb
000003a0: f8ee 103c b7b6 78bd e49f c0bd 680c 673b
000003b0: 7e10 b2bd 5451 45bd a215 e9bd da0d ccbc
000003c0: acbd 283c b9ff ba3d 79d5 563d f159 083c
000003d0: 3bac 11be 30a5 9f3c 4ca3 f4bd 3df3 11bd
000003e0: b3df b9bc 377a 7bbd a8b7 7dbd 96d2 a5bd
000003f0: a9bd b73c 51ce ab3a 165e fbbb 5aff 1e3e
0.1122305 0.05039609 -0.037183356 0.0941499 -0.04012703 -0.099312335 -0.104443796 -0.05263466
0.10876103 -0.0422957 -0.111658834 -0.025411697 0.11685798 0.02240047 -0.02112655 0.09287439
-0.05300579 -0.068924636 0.10371806 0.0785171 0.112286314 -0.029531615 -0.027571721 0.0023347186
-0.110943206 0.086483784 0.025143743 0.11383211 0.121743105 0.12122356 0.024052544 -0.018573629
0.047581516 0.0045468365 -0.008536863 -0.0038959312 0.07346605 0.032748837 -0.08333548 0.089581914
-0.054422274 -0.0801431 0.12318742 0.082101576 0.105718195 0.050531078 -0.10957268 0.058147654
-0.08519681 -0.022894833 0.075744554 0.040105432 -0.08093895 -0.0009277188 0.096936636 0.08343
0.11861782 -0.07917599 0.051377043 0.028228913 -0.10977064 0.05431304 0.11096155 0.062715426
0.05664329 -0.042731818 0.02240435 0.0058893817 -0.06503055 -0.1373632 -0.11896291 -0.0985444
-0.01586125 0.0062816073 -0.13739203 0.0371391 -0.092580564 -0.119873084 0.0077168704 -0.014126482
-0.093796834 -0.044239406 -0.031657126 -0.0011283248 -0.07805721 -0.112667665 -0.02734162 0.054400135
-0.1190579 -0.11522797 0.050252706 0.09617179 0.12391282 0.030481892 0.02061612 0.055686116
-0.029563928 0.006836079 -0.02297322 0.051206708 0.13436355 0.04792352 0.05254675 0.16437575
0.054161604 0.073481336 0.040339015 0.14551756 -0.074952506 -0.029127205 -0.14687991 -0.07789825
-0.17622499 -0.12897488 0.015704248 -0.06385687 0.045080602 0.033182595 -0.11026994 -0.12293245
0.034308948 0.004624482 -0.13644792 -0.09523432 -0.056151457 0.053318683 0.023541862 -0.014446721
-0.030531881 -0.059667163 -0.107359916 -0.0074204816 0.07038891 0.043599743 -0.11003714 0.095537975
0.16305129 0.05931319 0.10821285 0.0892976 0.15670873 -0.016924651 0.13161725 -0.08075754
-0.023502868 -0.08157106 -0.105476126 0.027400734 -0.07669643 -0.0073770666 -0.07455314 0.028531473
-0.073245555 0.044257905 0.048979905 -0.050838742 0.10205745 -0.014668842 0.09907485 0.01812259
0.10173271 0.07075322 0.044422742 0.012714131 -0.04937142 -0.007216447 -0.06767801 -0.047660682
-0.10808008 -0.0845743 -0.06970257 -0.03986339 0.0056795506 -0.107317574 -0.058157533 -0.03634414
0.08188323 0.043868817 0.07565252 -0.14020224 0.047382012 0.057339832 0.10368272 0.04495019
0.03762503 -0.066154145 -0.030933563 0.0334828 -0.05155819 -0.06256586 0.12308899 -0.036721706
-0.058039997 0.050771017 -0.01752106 -0.009722849 -0.04943097 0.09518388 0.11677855 0.030312698
0.10090284 0.096636556 0.07129217 0.11792249 -0.04432464 0.08073159 0.029880086 0.0057787676
0.031095527 -0.10572457 -0.09737795 -0.08000067 -0.075006165 -0.06717113 -0.059351426 -0.004352951
-0.02607106 -0.044656582 0.04469077 -0.017086083 0.05446631 -0.06544238 0.042831067 -0.06779717
0.09375227 0.13384286 -0.02640036 0.13248141 -0.094898395 0.12430539 0.09671093 -0.0054424065
0.008846037 -0.060721125 -0.09405497 0.0035255197 -0.08694552 -0.048173264 -0.11381079 -0.024908949
0.010299128 0.091308065 0.052449677 0.008322225 -0.14225857 0.019487947 -0.11945209 -0.03563236
-0.022689676 -0.06139585 -0.061942726 -0.08096807 0.022429304 0.0013107752 -0.007671128 0.15527096

encoder.3.bias f4 [16]
00000000: 8e38 eabd 3881 b6bd 9771 c9bd 5cf2 923d
00000010: 49df cebd b802 a2bc 41bc bbbd 36e3 83bd
00000020: 1332 733d 5549 993d f2b4 6d3b 98e6 4ebd
00000030: d148 58bd c45e 133d 0ee6 993c c75c 5fbb
-0.11436568 -0.08911365 -0.09836119 0.07175133 -0.10101182 -0.019776687 -0.09166766 -0.064398214
0.059373926 0.0748469 0.0036271182 -0.05051288 -0.052803818 0.035979047 0.018786456 -0.00340824

encoder.6.weight f4 [32, 16, 3, 3]
00000000: d068 bdbc efa6 58bd 208d 9c3d 2ef0 23bd
00000010: 5796 173d 3233 813d 36d5 a0bd d272 54bd
00000020: 7636 71bd d56a 3ebd 8c04 2e3d 8c2d 9d3d
00000030: f528 ffbc f129 8ebd c784 143d f71c 6cbd
00000040: 8bf9 723c 265b 29bd 4ef4 813d 856f 14bd
00000050: 71ca 8ebd 27ec 893d 10ca 53bd 213b 823b
00000060: 9b0e 6fbd f5cf 08bd ecc9 4cbb 7d9b 3d3d
00000070: 28be 8abb 3eeb a33c d0cc 70bb 04ff 713c
00000080: 047a 1f3d 3110 2fbd c4b0 e23d 100f 83bd
00000090: 9bc1 fa3c 377e 7d3b d402 893b aa80 b73d
000000a0: 10b1 313d 070f 343d db78 823b 9bc2 503c
000000b0: a547 95bd d64f a7bc 43d2 a43c e6b0 31bc
000000c0: 3970 563b bf9d 30bc caa7 a3bd e6c3 953d
000000d0: f415 a03d 9f60 b83c e91e ac3d 26c1 72bd
000000e0: eb61 df3c 4052 c5bc 39cd b63c 71ed 813c
000000f0: 686c a23d 54d3 863c 3e91 d8bc 2870 913c
00000100: a84b 92bd 1a35 70bc 56a2 c7bc d155 55bd
00000110: 7c40 5e3d 4ba5 00bd 84a5 333d d4ac 8ebd
00000120: 6c3e 693d b1a6 f23c 1e7d 3c3d e93b 8abd
00000130: 3909 a3bd 609e a4bc 99c3 553d 1b7d 8bbc
00000140: 925b 893d e071 043d 6851 0f3d 497a 0b3c
00000150: 34a8 693c 92f0 7b3d f2a8 58bd fd8a 143d
00000160: 3c27 af3d 734c 41bd d480 4abd abd0 9ebd
00000170: 2699 33bd 857e bebd 4774 83bc 65b4 4a3d
00000180: 3dae 9cbd 824f 89bd 6666 893c 13ca 1abd
00000190: 33fb 2b3d dc5b 6d3d a109 8a3d c29e cd3d
000001a0: 74b5 5c3d 1821 15bd ee4d 833c 7e04 5a3d
000001b0: 61af 853d df8f 263c f4ff 403d 069f 8f3d
000001c0: 85a2 d23d 5b3a b7bc 9707 82bd 7ad6 483d
000001d0: dc04 a6bc 2b20 0f3d 02b8 523d 5edf a43b
000001e0: bf86 8b3c 401c a4bc 2bb4 dd3c 9256 a3bc
000001f0: 7609 76bd 33c1 b7ba 75fe 8b3d c9bb 7ebd
00000200: 61ee b33d 1556 85bd 5b5f 02be 546e 363d
00000210: 5814 843d f47e c8bd b8d8 f0bb 6578 aebd
00000220: e545 9cbd 84cf 2abd c91e bbbd ad21 71bc
00000230: 0275 febc ffc3 acbd 75b5 b8bd 6b7f e3bc
00000240: 410f 6c3d 2168 25bd 9d06 463d f512 6bbd
00000250: 18b9 343d bac7 5fbd 23da 643c ed4b 9c3c
00000260: bf1f b9bc cf0d 263e 3869 0f3c e8d7 0e3d
00000270: 2cfd d03d 3b02 e53c ad88 9cbd 3da4 a23d
00000280: ba7c e7bc c365 a83d b1ca 9dbd 8040 783d
00000290: 8ba6 87bd 4476 94bd e03a b0bd 3f21 c3bd
000002a0: 5adc c1bd f5a1 053d 51d4 0d3d fefd 6cbd
000002b0: 8cca 933c 50cd 773d 167c 963b f14d 04bd
000002c0: aa8c 87bb b9c4 cfbd caa3 84bc 095a b03c
000002d0: 8580 22bc 51fa acbd 67af b0bd 22e6 d3bd
000002e0: 2d2b 57ba fd28 083d b1d5 6cbc bf21 733d
000002f0: 7c96 1ebd ac07 0f3e 3342 88bc 0ef4 12bd
00000300: 72e0 9dbc 9f23 2ebb 06f6 b03d b2e3 333c
00000310: 977c 853d aa85 e33d e220 a7bd eab4 22bd
00000320: e2c8 813d c4cd a4bd fac2 603d 4e7e 49bd
00000330: e402 99bd d7f2 273d e35e d53c c274 98bd
00000340: 71fc 03bd dad0 4fbd 5740 003d 5306 dbbd
00000350: dbd9 2f3d c461 d6bd 1ba7 90bd 496f 343c
00000360: f2e5 1b3d 0242 1cbb 55a6 33bd 7fdb 4bbc
00000370: 103a c13c 39e1 a23c 7232 2cbc 45c5 41bc
00000380: c05b b4bc 7eec 99bd 7abd 293d 37cc 533c
00000390: 6edb 1a3c 47a2 a53b d26c 713d f985 ec3c
000003a0: 2316 af3b 474d 493b 039c 8a3d 41b3 0a3c
000003b0: f02f 4c3d beef ab3c 7164 ae3b d39f 89bd
000003c0: 0d19 a43d 54ec aebc 5b1d 4f3d bae1 c6bd
000003d0: f296 703d 6a35 283c 230f 79bc 077d c8bc
000003e0: 4867 aabd 4991 afbc 4208 003d e453 093d
000003f0: deef 8fba 1191 b0bc 2ba6 423d 0bcb 95bc
-0.023121268 -0.052893575 0.07644105 -0.040023975 0.03700861 0.06308593 -0.07853167 -0.051867314
-0.05888983 -0.0464886 0.042484805 0.07674703 -0.03114746 -0.069415934 0.03625944 -0.05764481
0.0148300035 -0.04134669 0.063454255 -0.036239166 -0.069722064 0.067344956 -0.051706374 0.003974334
-0.05836354 -0.03340145 -0.0031248285 0.046290863 -0.004234094 0.020009633 -0.0036743172 0.014770273
0.038934723 -0.04274005 0.110688716 -0.06399357 0.030609896 0.0038679966 0.0041812453 0.089600876
0.04338175 0.043959644 0.0039816923 0.01274171 -0.07289056 -0.02042381 0.020119792 -0.0108453985
0.0032720699 -0.010779797 -0.079909876 0.07312755 0.07816687 0.02250701 0.08404333 -0.059266232
0.02726837 -0.024087071 0.022314655 0.015860291 0.07930833 0.016458191 -0.026436444 0.017753676
-0.071433365 -0.014661098 -0.0243694 -0.052083794 0.054260716 -0.031407636 0.04385902 -0.06966558
0.056944296 0.0296205 0.04601776 -0.06749708 -0.079607435 -0.02009505 0.05218849 -0.017027428
0.06706919 0.032335162 0.034989744 0.008513042 0.014261294 0.061508723 -0.052895494 0.036265362
0.08552405 -0.04719205 -0.049439266 -0.07754644 -0.043847226 -0.093014754 -0.016046656 0.049488444
-0.07650421 -0.06704618 0.01677246 -0.03779037 0.04198761 0.057948932 0.06740118 0.10040046
0.053883985 -0.036408514 0.01602837 0.05322694 0.065275915 0.0101661375 0.047119096 0.07012753
0.102849044 -0.022366693 -0.06349104 0.049032666 -0.020265989 0.034942787 0.051445015 0.0050315103
0.017032025 -0.020033002 0.02706345 -0.01993874 -0.060067616 -0.001401937 0.06835643 -0.062190805
0.087857015 -0.065105595 -0.12731688 0.04453881 0.06449193 -0.097898394 -0.0073500536 -0.08519057
-0.07630519 -0.04170181 -0.09136731 -0.014717502 -0.031061653 -0.08435821 -0.09018985 -0.027770719
0.057631735 -0.04038251 0.04834615 -0.057391126 0.04412183 -0.054633833 0.0139680235 0.019079173
-0.022598146 0.16216205 0.008753113 0.034873873 0.10204539 0.027955165 -0.07643256 0.07941482
-0.028257716 0.082225345 -0.07704676 0.060608387 -0.066235624 -0.0724912 -0.086049795 -0.095278256
-0.09465857 0.032625157 0.03462631 -0.057859413 0.018040918 0.060498536 0.004592429 -0.032300893
-0.0041366415 -0.10144944 -0.016191382 0.021527307 -0.009918337 -0.084461816 -0.08627205 -0.10346629
-0.0008208033 0.033242214 -0.014455245 0.059358355 -0.03871773 0.1396777 -0.016633129 -0.03587728
-0.019272063 -0.0026571525 0.08640675 0.01097958 0.06517904 0.11109479 -0.08160569 -0.039723314
0.063371435 -0.08047059 0.054873444 -0.04919272 -0.074712545 0.041003074 0.026046222 -0.07444145
-0.03222317 -0.050736286 0.03131136 -0.106945656 0.042932373 -0.10467866 -0.07063123 0.011012861
0.03806109 -0.0023843055 -0.0438598 -0.012442469 0.023587257 0.019882785 -0.010510074 -0.011826818
-0.022016406 -0.075158104 0.041440465 0.012927107 0.00945173 0.0050547454 0.05894167 0.028872477
0.005343215 0.0030716227 0.06768038 0.008465589 0.049850404 0.020988341 0.005322032 -0.06719937
0.080125906 -0.021352924 0.050565105 -0.09711023 0.058737703 0.010266641 -0.015201363 -0.02447368
-0.083204806 -0.021431582 0.031257875 0.03352727 -0.001098152 -0.021553548 0.04752175 -0.018285295

encoder.6.bias f4 [32]
00000000: e463 3dbc 69e0 4a3d c504 77bd 3b7d fbbc
00000010: 6596 72bc 678f be3c 25e9 e33c 8995 9ebb
00000020: b4fc acbd 8e79 973d 6c42 863d 22f6 403d
00000030: c3ee 42bd e1cf 583d e123 2e3d cd71 00bd
00000040: 6db5 73bd 7d33 30bd 4a0e 35bd fea5 71bd
00000050: aa22 d4bb 984d 333d c213 213c 7291 58bd
00000060: 2f07 a43d 89eb b5bd f3e2 06bc b1d5 c3bc
00000070: 8621 6d3d f193 67bd 0c39 eebc b639 56bc
-0.01155946 0.04953042 -0.060307283 -0.030699363 -0.014806365 0.023261739 0.027821133 -0.0048396033
-0.08446637 0.073962316 0.06555638 0.04710973 -0.047590982 0.052932624 0.042514686 -0.03135853
-0.059499193 -0.043017853 -0.04420308 -0.058996193 -0.006473859 0.04377517 0.009831371 -0.052873082
0.08009183 -0.088828154 -0.00823282 -0.023905607 0.0578933 -0.056537572 -0.029079936 -0.013075283

encoder.8.weight f4 [64, 32, 3, 3]
00000000: 82bd cd3c 6266 0ebd d16e 4abd 7e04 4ebc
00000010: ed83 cabc c29e b9bc eb1c e93b 3923 69bd
00000020: c61d f9ba 86db a4bc 6972 a33c 93ad 1abc
00000030: 80f5 87bd 4ffe a83d d087 343c 8076 f63c
00000040: 5cd6 823d 6109 903d 02de 62bd 3599 dcbc
00000050: 0564 6fbd 81e9 2e3c 444c 1cbd 3b22 0fbd
00000060: aa0f a3bc fefe 4bbc a87e 0d3c 37a9 813c
00000070: f7f0 02bc b243 88bd cc4e 70bd ea07 c43c
00000080: add0 b1bc 498b 69bd b11e a93c 9023 e2bc
00000090: 75fe 9cbd 2f21 10bc 4732 57bc 6073 0f3d
000000a0: 161e 96bd f648 6a3c c44e 7b3d 1bce 403b
000000b0: b226 8dbc a400 033d 2257 1c3d 1a2a 14bd
000000c0: 8de1 e23c ab31 7fbd e301 8fbd d7e4 debb
000000d0: 5ef5 5d3b a3aa 1dbd 829a 8cbc e1ef b3bc
000000e0: 1315 abbd 7767 de3d ea84 d53c dc6f c8bc
000000f0: 88c2 94bd 2559 52bd de71 5bbd 84fc 95bd
00000100: ec84 eabc fb34 49bc ef66 79bc 71e3 3cbd
00000110: 1cda 02bc c5ed 27bd 003c c73c ade9 4b3d
00000120: f919 603d 87e8 68bd 5ffa 5a3c d848 59bd
00000130: 48f1 583b d33a 15bd 0205 2f3d f497 b9bd
00000140: cb3d 11bc 02e8 893d 8a97 573d c334 98bd
00000150: 8fb9 863d 7b52 3f3c f292 053b 496a 183c
00000160: 9bde 5d3d c906 9bbc 774e 7f3c 8044 b93d
00000170: bccd 663c da91 00ba c7f8 a03d 1fab e8bb
00000180: dd0a 2b3d 2a78 623d 0e5d e23c a701 573d
00000190: 9e36 8e3d 98c3 3b3d 5fc8 25bd b23a 9e3d
000001a0: 26ac 863d b433 113d 5f78 803d 3c0c 203c
000001b0: 12af 403d 1cad 313d 77af b43d 30eb 0ebd
000001c0: c749 68bd e4d6 45bb 8f0e 483d f3b3 3ebd
000001d0: 02fd 183c 2920 1cbc c619 993d 4973 bdbd
000001e0: f8e8 943d 782c 663d e16f e6bb 2883 a73b
000001f0: f5f9 073d eac6 af3c 8394 0d3d 0dfb 8cbc
00000200: 293f 3f3d 19e8 b7ba 1a8e 2e3d cc7a 123b
00000210: 70e8 63bb 72c8 7a3c efa6 6cbc 0ca9 08bd
00000220: c0ac a03d 3682 58bd 9b76 bcbc 98fd 18bc
00000230: 7120 2f3d 18a8 033d d310 b93d 7aaf 4a3d
00000240: cb2b 7c3d 822b 63bd 4192 333d e3ce e3bc
00000250: 5482 06bd 3e78 3fbd 6237 30bd 0a21 2cbc
00000260: b919 94bc 1fed 5a3d b0d0 273d d2a5 9b3c
00000270: cca8 4b3c 2aca b9bc b08c 053d 0680 4abd
00000280: 717c ad3c ed38 77bc 2456 84bd 5420 b4bd
00000290: e581 4fbd 9cfa 3b3d 1944 61bd 76ab 473d
000002a0: 4289 81bd be58 9fbd c6d3 fdbc 06e7 953c
000002b0: 335d 11bd c126 0abd b409 4dbd 8d4b 82bd
000002c0: cb8b adbb 4495 c33c ef78 9ebd 04a7 173d
000002d0: bbdb e33c 01e3 94bd 42d4 c73a 664d 8dbd
000002e0: aa08 89bc cdbe 8ebd 39b9 8abc 6525 85bd
000002f0: 2efe 41bd f151 ab3d e87d a43d 2b30 83bd
00000300: a63b a03b e97d 8a3c 48be cfbc bdfa 2f3d
00000310: cf72 aebb e48d 58bd a708 3f3d b6a5 833d
00000320: 81f7 d73c 6ee3 a73c 9c7e 6d3c b799 1d3d
00000330: e57e f53c bf3f 1e3c 0212 18bd 0b39 7f3d
00000340: 2d8c 50bc 9a2e 12bb 72fc a6bd 6d04 32bd
00000350: 212f fcbc 8082 833b 9050 da3a 80d9 693d
00000360: 3fd8 173d 284b 153d 9443 00bd 8702 833d
00000370: 9a06 5d3d 6160 643d fb40 34bd a984 ab3c
00000380: cdd8 8bbb 0c1f 863d 4ea6 303d 92ba 37bd
00000390: 269b 2b3d a3ba a7bd c33b 8a3b 55de c73c
000003a0: 64ee 263d f0ba 68bc 319f 293d 9091 663c
000003b0: 91d1 8a3c 26a6 003d d87f c63d 211b 033c
000003c0: 73d7 eabc fc97 313d 7f6b ebbc 0be0 7e3d
000003d0: 46b9 2cbd 8196 08ba 2c3f e0bc 4597 8abd
000003e0: 4f97 0dbd 1bff 683c a429 07bd c3b4 4abd
000003f0: f684 9fbd 98f3 833c 2e86 8fbd cea8 2fbb
0.025114778 -0.03476561 -0.04942209 -0.012574313 -0.02472111 -0.02265871 0.007114043 -0.056918357
-0.0019006066 -0.020124208 0.019952016 -0.009440797 -0.06638622 0.082516305 0.011018708 0.030085802
0.06388542 0.07033039 -0.055387504 -0.026928524 -0.058444995 0.010675789 -0.03815867 -0.034944754
-0.01990493 -0.012450932 0.008636154 0.015827758 -0.007992021 -0.06653537 -0.058668897 0.023929555
-0.02170595 -0.0570176 0.020644518 -0.027604848 -0.07665721 -0.008796974 -0.013134546 0.03502214
-0.07329957 0.014299622 0.061354414 0.0029419723 -0.017230365 0.031983033 0.038169034 -0.036172964
0.027695442 -0.062303226 -0.06982782 -0.006802182 0.0033868174 -0.03849281 -0.017163519 -0.02196497
-0.08353629 0.10859578 0.026064355 -0.024467401 -0.072636664 -0.051354546 -0.05357539 -0.07323554
-0.028627835 -0.012280698 -0.015222295 -0.046115343 -0.007986572 -0.04099824 0.024320602 0.049783397
0.05471227 -0.05686238 0.013365357 -0.053047985 0.00331028 -0.036433052 0.042729385 -0.09062186
-0.00886483 0.06733705 0.052634753 -0.074319385 0.06578361 0.01167738 0.0020381776 0.009302684
0.05416737 -0.018924134 0.015582672 0.090462685 0.014087137 -0.0004904546 0.078599505 -0.0071004773
0.041758407 0.05529038 0.027632263 0.05249181 0.06944011 0.04584083 -0.040474292 0.07726039
0.065758035 0.0354497 0.06272959 0.009768542 0.04704196 0.04337798 0.0882253 -0.03489226
-0.056710985 -0.00301879 0.04884201 -0.04655833 0.0093376655 -0.009529152 0.07475619 -0.092505045
0.07270998 0.056194752 -0.00703238 0.0051120706 0.033197362 0.021457154 0.03456546 -0.017209554
0.046691094 -0.0014030962 0.042615987 0.0022351025 -0.0034775995 0.015306579 -0.014444097 -0.03336434
0.078454494 -0.052858554 -0.023005774 -0.009337805 0.042755548 0.03214273 0.09036412 0.049483754
0.0615652 -0.055461414 0.04384065 -0.027808612 -0.032839134 -0.04674553 -0.043021567 -0.010505924
-0.018078672 0.053448793 0.040970504 0.018999968 0.012430381 -0.022679407 0.032604873 -0.0494385
0.021177502 -0.015089256 -0.064617425 -0.087952286 -0.050660986 0.045893297 -0.054996584 0.048747502
-0.06325008 -0.07780598 -0.03098477 0.018298637 -0.035489272 -0.033728365 -0.05005808 -0.063620664
-0.0052962056 0.023874886 -0.0773791 0.037024513 0.027814737 -0.0726986 0.0015245753 -0.06899528
-0.016727764 -0.06969986 -0.016934024 -0.06501273 -0.047361545 0.083652385 0.08031827 -0.06405672
0.004889923 0.016905742 -0.025359288 0.042963732 -0.005323745 -0.052869692 0.04663911 0.06428091
0.026363136 0.02049419 0.014495518 0.038476672 0.029967735 0.009658753 -0.03712655 0.06231026
-0.012728733 -0.0022305609 -0.08153619 -0.043461252 -0.030784192 0.0040133595 0.001665609 0.05709219
0.037071463 0.036448628 -0.031314448 0.063969664 0.053961374 0.055755977 -0.044007283 0.02093728
-0.004267788 0.065488905 0.04312735 -0.04485566 0.041896008 -0.08189895 0.00421855 0.024398008
0.04075469 -0.014204726 0.041411582 0.014072791 0.016945632 0.03140845 0.09692353 0.0080020735
-0.028667187 0.043357834 -0.028737782 0.062225383 -0.042168878 -0.0005210415 -0.027373873 -0.067671336
-0.034568127 0.014220978 -0.032998696 -0.049488794 -0.07789032 0.016107365 -0.070080146 -0.0026803496

encoder.8.bias f4 [64]
00000000: 1e23 3ebc fe34 433d aa93 eb3c 5f2a 3cbd
00000010: 9a47 633d 106a 67bc 3935 303d feea d93c
00000020: 6b5d 8dbd 8b86 443d 985c 8bbd f239 633d
00000030: ab88 c9bc 9acb 23bd 22ac 863c a250 bf3c
00000040: fa39 8dbd 39b9 c5bc b7f5 5fbd 5ce9 4dbd
00000050: e84b 7fbc fffe 843b ea0e cabb 0c1d 903c
00000060: 2809 d93c 099b 3a3d e353 593d 8643 0f3b
00000070: 9aa7 303d c026 353c 80ed 133d 5503 c53c
00000080: d4a0 e83c f3ab 963c dfc1 773d b076 2abd
00000090: 8058 ffbc 065a 503d 4f41 583b aa84 153d
000000a0: 4fc4 1d3d 4603 e1bc af69 183c 0f1e 44bc
000000b0: ce64 533d 0f6f b8bc 8280 7bbd bebe 93bd
000000c0: 7543 07bd 7a95 673d a73c 1ebc 585f 70bd
000000d0: 5b37 913b ef0a ec3b 3b32 703d d2ea 4fbc
000000e0: b865 ecbb d63f 89bd bf3c 19bd 62bf 50bd
000000f0: 8228 4e3c 5940 54bc 69aa 6bbd 80a8 323d
-0.011605052 0.04765796 0.028756935 -0.045938846 0.055488206 -0.014124408 0.043019507 0.02660131
-0.06902584 0.047979873 -0.0680477 0.055475183 -0.024601301 -0.03998909 0.016439501 0.023353878
-0.06895824 -0.024136173 -0.05467769 -0.050271377 -0.015582062 0.004058718 -0.0061663287 0.017591976
0.026493624 0.04555801 0.053058516 0.0021860315 0.043128587 0.011056602 0.03611517 0.02404944
0.028397001 0.018392539 0.060487624 -0.041617095 -0.03117013 0.050867103 0.0032997911 0.03650347
0.038517293 -0.027467381 0.009302541 -0.011970057 0.051609807 -0.022513894 -0.06140185 -0.072141156
-0.033023316 0.056539036 -0.009658015 -0.058684677 0.0044316477 0.007203452 0.058641654 -0.012690263
-0.0072142743 -0.06701629 -0.037411448 -0.050963767 0.0125829 -0.012954795 -0.057535563 0.043617725

encoder.10.weight f4 [128, 64, 3, 3]
00000000: 359b 55bc 742a adbc 77db 40bd 6e1f 7c3d
00000010: 1786 633d 7177 cebc 6535 9439 5c13 003d
00000020: 7fa6 febc b3ef f83c 2561 383d d1c0 5ebc
00000030: e00e cebb b5ca 533b 3de2 64bb fc91 023c
00000040: 8d4a a13b 159c 07bd b243 22bd ed76 443c
00000050: b465 0cbd 374c 08bc cb1e c83c dad0 a13c
00000060: c98d e73c 072b 2b3a b67c d03b 90e8 8ebc
00000070: 8eff 64bd 981d 9e3c 73a5 31bd f536 aeb9
00000080: 732e 0ebd 1a01 16bd d48e ab3c 99dd 233c
00000090: a575 3f3c c5cf 863c f1e0 823c ead8 523d
000000a0: f630 b33b 225c 493d 0852 a93c b6bd a03b
000000b0: d6f7 70bc 8351 84bc fd10 5d3b 36ed a23c
000000c0: e15d 223d f746 383d 2e83 013d 22d3 d43c
000000d0: 16cf 893c 8ebf 083d e977 783c 4971 583c
000000e0: b196 b13c c3af 10bc 3691 c43c 63ad 94bc
000000f0: a11c 5e3d 818f c03c 3685 49bc 2cad f03b
00000100: c266 c23b e7a6 03bd 8303 91b9 2ebb 713c
00000110: 00a4 83bc ab5c f73c c20a 02bb b6fd 023c
00000120: 6334 9fbc 80e4 d7bc 11d4 1bbd a17f 34bd
00000130: bfb9 29bd fe87 c53c fc59 54bc fb65 2b3c
00000140: c429 89bc 4068 a9bc e7ce cfbc 9f9b 52bc
00000150: 0a7e f43c ffad 373d 79fd 18bd 39ed 223d
00000160: 9712 59bb 0ca1 123d 04fc d8bc c86f 903c
00000170: 2dcf 5d3c ff74 37bd f099 903c 6920 9ebb
00000180: 20fc 9abc cf8f 863c 517d aebc 823d c4bc
00000190: e63c 7b3d d1e0 1b3b 360f 483d bca2 50bc
000001a0: b142 1abb 23a6 e33c 86f6 c63b c622 2bbd
000001b0: 9450 b1bc e670 57bd 941b 8f3c 168b 66bd
000001c0: 5e43 00bd 2baa ae3c 6db2 25bc b4da a93c
000001d0: 0c5c a33c aa0c 3ebd daaa 76bd cad6 3abd
000001e0: 01cf f7bc 7c49 77bd ad89 443b 64e3 26bd
000001f0: 75f6 5ebd 9a24 003d 5ffa 393c d283 dc3c
00000200: 2728 6cbc baec 92bb 6618 513d 745a 953c
00000210: e829 a03c 0172 143d 1469 7dbc 1a5a 4b3d
00000220: 70fc 71bc 7abc a5bc d659 723c f184 c03b
00000230: 9c70 063c 4dbe 063c dd3c fb3c ef91 1f3d
00000240: ff6a fa3c fdb0 37bd bba9 25bd d159 d73c
00000250: d225 02bd e9ee 0ebd d3c8 ffbc 93a1 7e3b
00000260: e048 eb3c f987 cabc ef10 acba da7a b33c
00000270: 759d 3abd 4e6c 7dbb 0a0f 85bc 74af 39bd
00000280: 9835 32bd 69fe 063d e46a 7a3c cb58 c43c
00000290: 60b0 b73c ce10 1fbd c095 523b cb7b c13c
000002a0: ce6f e93b ca94 503c bf86 0bbc 71ed 9fbc
000002b0: 7f31 5bbc 7903 dbbc 0d39 1bbd 7522 b1bc
000002c0: bb87 98bb abaa 71bc 7e6d 16bd b0fb 763c
000002d0: e22e 01bc 716f 55bd 943b 013d c4e9 033c
000002e0: df69 cbbc c938 2ebb a50f 933b 3f8d c53b
000002f0: bca9 243c d521 b83a 38bf 60bd f023 88bb
00000300: aa4b bebc 77a9 c7bc 3c77 01bd 65f0 ae3c
00000310: c44f 38bd 8b1c 89bc e0cd d1bb 0dd1 19bb
00000320: af9f 303d 101c 603d 0d3f 753d 9805 953c
00000330: 1208 0d3c d05e b73c c24c 1ebd 95cf 003c
00000340: a498 cc3c 95cd c53a 2f16 a4ba e1ac 003c
00000350: 1488 1f3c cefa 97bc 8868 1dbc a6f8 223d
00000360: 88ea 313d da39 84bc 0c3b 243d 6c1b 693d
00000370: 1314 be3c f1ff 73bb 994c 543d 5d7b 3a3d
00000380: 294e 16bd 185b a33c 82c7 12bb a334 01bd
00000390: 687a 413d ab84 3d3d fa2c eabc 4180 4bbc
000003a0: 4785 143d db4f 2f3d 277f 383d 8595 d83b
000003b0: a885 01bd 1ef4 143d b477 65bb be60 273d
000003c0: 5ae7 b9bb bcb3 80bc db4a 803c eb4c 0fbd
000003d0: dfc1 27bd 3965 8fbc 5e92 a83c fac6 573c
000003e0: 77cd dcbb f13a 803c d60b 43bd 7c5f 673c
000003f0: 6c34 ebbb 5ddf 4b3d 63ea d33c 102f 6d3c
-0.0130374925 -0.021138407 -0.047084298 0.06155341 0.0555478 -0.025203438 0.00028268542 0.031268463
-0.03108525 0.030387735 0.04501452 -0.013595776 -0.0062883943 0.0032316868 -0.0034924888 0.007969376
0.004922217 -0.033107836 -0.03961534 0.011991245 -0.03427668 -0.008318952 0.024428746 0.019752908
0.02826585 0.0006529544 0.006362523 -0.017444879 -0.05590778 0.01930122 -0.043370675 -0.00033228812
-0.034712266 -0.036622144 0.02094213 0.0100015635 0.0116857635 0.016456494 0.015976401 0.051476397
0.005468483 0.04916013 0.020668998 0.004905428 -0.014707526 -0.016152149 0.003373205 0.019888502
0.03964031 0.044989552 0.031619243 0.025979582 0.01682238 0.033385806 0.015165308 0.013210603
0.0216783 -0.008830967 0.023995023 -0.018149083 0.05422652 0.023505928 -0.012299826 0.0073448624
0.00593266 -0.032141592 -0.00027659172 0.0147541 -0.016069412 0.030195555 -0.0019842838 0.00799506
-0.01943416 -0.026354074 -0.03804404 -0.04406703 -0.041436907 0.024112698 -0.012960907 0.010461326
-0.016743548 -0.020679593 -0.025367213 -0.012854486 0.029845256 0.04484367 -0.037351105 0.039777014
-0.0033122653 0.035798118 -0.026487358 0.017631426 0.013538164 -0.04478931 0.017651528 -0.004825641
-0.01891905 0.016425995 -0.02129999 -0.02395511 0.061337374 0.0023785124 0.04884263 -0.012734111
-0.0023538286 0.027789181 0.0060718684 -0.04178121 -0.021644868 -0.052597903 0.017469205 -0.056284986
-0.031314246 0.021321377 -0.010113341 0.020734169 0.019941352 -0.046398796 -0.06022153 -0.045614995
-0.030250074 -0.060372815 0.0029989288 -0.0407442 -0.05443426 0.031284906 0.011351197 0.026918326
-0.01441387 -0.0044837864 0.05104866 0.018231608 0.019551232 0.036241535 -0.015466947 0.049646474
-0.014769658 -0.020231474 0.014791926 0.005875223 0.008205559 0.008224082 0.03066867 0.038957532
0.030568598 -0.044846524 -0.04044507 0.026287945 -0.03177435 -0.03489581 -0.03122369 0.003885363
0.028721273 -0.02472304 -0.0013127605 0.021909166 -0.04556032 -0.003866929 -0.016242523 -0.04533334
-0.043508142 0.03295747 0.015284274 0.023968121 0.02242297 -0.038834386 0.0032132715 0.0236186
0.007123924 0.012730787 -0.008516013 -0.0195224 -0.0133785 -0.026735054 -0.037896205 -0.021622876
-0.004654852 -0.014750163 -0.036725514 0.015074655 -0.007884713 -0.052108232 0.03155096 0.00805134
-0.024830757 -0.002658414 0.004487949 0.0060288007 0.010050233 0.0014048169 -0.05486986 -0.0041546747
-0.023229439 -0.0243728 -0.03160785 0.021354863 -0.044997945 -0.016737243 -0.006402716 -0.0023470551
0.043121036 0.054714262 0.059874583 0.018191144 0.008607881 0.022384077 -0.03864742 0.007861991
0.024975128 0.0015091175 -0.0012518818 0.007853718 0.009737033 -0.01855221 -0.009607442 0.03978791
0.043436557 -0.016140867 0.040095374 0.056910917 0.023202932 -0.003723141 0.05183086 0.045527805
-0.036695633 0.019940898 -0.0022396748 -0.03154434 0.047235876 0.0462691 -0.0285859 -0.012420715
0.036259916 0.042800765 0.045043137 0.006609621 -0.031621605 0.03636562 -0.0035013976 0.040863745
-0.005673331 -0.015710704 0.015660694 -0.034985464 -0.040956374 -0.017504321 0.020577606 0.013169998
-0.0067383605 0.015653105 -0.04761871 0.014121886 -0.00717788 0.049773563 0.0258686 0.014476553

encoder.10.bias f4 [128]
00000000: ce49 bb3c c470 0d3d 0737 053d 231b d93b
00000010: f166 ffbb 85a9 6b3c ecba c238 1209 363d
00000020: f75a f63a 259d 873c ac6a 313c aa7b 513d
00000030: 6e70 3b3c e557 973c 0c4d 3a3d c683 0b3d
00000040: fc8f 873c 8e56 843d bca3 893d 0ab1 8b3b
00000050: 88a9 723d cc6a ce3b eca9 393d 002c 0f3d
00000060: 5d0a 0b3d 259e 2e3d f81e f03b e58c cd3c
00000070: 5f93 ed3a 9daa b23c 357c 263d f9c2 1a3d
00000080: 4295 88bb c421 e33c 0197 c23c 1833 d13c
00000090: 164b 2d3c 94f7 2b3c c51e 163d a961 3e3d
000000a0: 178e 013d 86f7 9cbc bc7c fc3c cf5e f33c
000000b0: 4380 883b 7261 1c3d cfc8 e83b 9bf3 7e3c
000000c0: c7ba d23b 8838 c43c 2c9c 4c3d aba4 383d
000000d0: 15ce c93c 2275 a93c ba55 c93c f3a1 243d
000000e0: 25aa b23c 8ba9 9cbb 7581 203d 3dbb c0bc
000000f0: 37e6 d43b 6f72 2e3d 50a1 053c 585b b3bc
00000100: abc7 29bb 329b eb3c 0683 433c 8538 ddbb
00000110: d92c 093c 5661 ba3c 665d 183d 6bde 23bc
00000120: 7855 b23c 1b24 193d 3215 e23b 30c4 27bc
00000130: 8f51 3e3d 6cc3 db3c 1c52 01bc 1f78 0b3d
00000140: 73b3 983c 64e4 023d 4a59 1c3d 30c0 ca3b
00000150: 301e f63c d4b7 d53c 69a9 883d 794b 903c
00000160: 9d79 5fbb 177d 113c eb46 873c 9d31 2e3d
00000170: 54a8 98bb dd0d 3a3c f0b3 703c ca46 fb3c
00000180: cf3c ae3c f100 4d3d cb31 d03b 61a3 16bc
00000190: 691b ceb8 f801 1a3d cb38 0c3d 18fe 983b
000001a0: 9395 0e3a 0611 8d3c 9f02 95bb 6a16 193d
000001b0: 7192 143b 2b31 373d 4aff 0a3d 71a3 ca3c
000001c0: 0733 ca3c c5eb 303d a032 3d3d 13f6 843c
000001d0: c077 c93b 4b16 b13b c147 feba 0991 d73c
000001e0: f2c3 953c e770 fcbb 5a33 0f3d de5e f63c
000001f0: 22b0 a93c e02c af3c ee74 083d edad b03c
0.022862341 0.03453137 0.03252318 0.0066255494 -0.007794254 0.014383678 9.285458e-05 0.044442244
0.001879542 0.016554425 0.010828655 0.051143326 0.01144038 0.018474529 0.045483634 0.034061216
0.01654815 0.064618215 0.06720683 0.004263048 0.05924371 0.0062993523 0.045328066 0.03495407
0.03394543 0.042631287 0.0073279105 0.025091598 0.0018125585 0.02180987 0.040645797 0.037783597
-0.0041681835 0.027726062 0.023753645 0.025537059 0.010576984 0.010496039 0.036650438 0.046479855
0.031629648 -0.019160997 0.030821197 0.029708294 0.0041656806 0.03817887 0.0071040164 0.01556101
0.006430957 0.023952737 0.049953625 0.045078915 0.0246344 0.020685736 0.02457701 0.04019351
0.021809647 -0.0047809533 0.03918596 -0.023526782 0.0064971703 0.0425896 0.008156136 -0.021894142
-0.0025906365 0.028760526 0.011933094 -0.0067511224 0.008372509 0.022751492 0.037198447 -0.010001759
0.02176927 0.03738795 0.0068994993 -0.010239646 0.0464645 0.026826583 -0.007893112 0.034050103
0.018640256 0.03195609 0.03817109 0.0061874613 0.030043691 0.026088633 0.066729374 0.017614113
-0.0034099587 0.008879921 0.016513309 0.042527784 -0.004658738 0.011355844 0.014691338 0.030673403
0.02126923 0.050049726 0.006353592 -0.009194226 -9.827951e-05 0.037599534 0.03423385 0.004668962
0.00054391584 0.017220031 -0.0045474316 0.03737489 0.0022670294 0.044724625 0.03393487 0.024736138
0.024682535 0.043193597 0.046190858 0.016230619 0.0061483085 0.005404269 -0.0019400046 0.026314275
0.01828191 -0.0077038887 0.034961082 0.030074533 0.02071387 0.021383703 0.033314638 0.02156731

decoder.0.weight f4 [128, 64, 3, 3]
00000000: 2db8 713c fe0c 263d b8a9 d6bb 8fa0 d63c
00000010: f33a fcbc 0079 15bd 5883 2b3c 41a9 f9bc
00000020: 5b2e b23c c6a1 3dbd 5f16 593c ab9b a8bb
00000030: 5472 05bd 3ab4 ac3c 3514 8abd 8bbc d23c
00000040: b4de c1bb 3e58 b1bc 7c36 3e3c cf08 21bc
00000050: 5ba9 18bd 568e 163b 62fa 8c3a 98ea d43a
00000060: f0dd f33c 9cd4 a73c 27ed cbbc e72a 093d
00000070: a2e4 9ebc b44d 203b f7b8 5c3c 9cd8 ad3c
00000080: a422 133d 7a0b 653c afb9 683d 08c3 893c
00000090: ae74 cbbc 15c6 173d db89 a8bc e373 723c
000000a0: 1fb6 c5bc 8d66 893b 2b3c 793c 9f28 063d
000000b0: c6ea 7fbc 472a 3b3d f8e6 ca3c 35b0 183c
000000c0: 92f0 133d 9081 49bc 1fd2 f13c 5550 253d
000000d0: ec65 f6bc 5fa1 9f39 3634 61bc f997 f3bc
000000e0: 7570 e8bc d045 8b3c 3657 ca3c 41a7 953c
000000f0: 8341 063c 2c25 db3c 1bb9 463c ff0b 373d
00000100: b533 203d a196 93bc cc26 44bc 1294 09bd
00000110: cac5 47bd 50bc 3cbc d797 16bc 888f cdbc
00000120: ab39 f4bc c62a fe3c 1d8f d23c f3d6 073d
00000130: 6134 31bc fc21 4e3d a7e4 ab3c 2e79 313d
00000140: d6d7 b43c 5ac4 04bd 03a9 4c3d acdb 843c
00000150: 6419 2cbc 21cc 25bc d0ff 013d 71cc f43c
00000160: 3de6 9a3c 0087 6d3d 1371 ecbc 2b82 643d
00000170: 91ec d13b b459 693c 592e 073d d405 083d
00000180: b015 ddbc ed87 3b3d 2616 3abc dd71 193d
00000190: ec57 4a3d 9a0b de3c 0206 d2bb 474b c03c
000001a0: dffc 96bc a689 ccbc 924c 6abc b7c0 a83b
000001b0: 83c9 f4bc 256c 8a3c 5244 96bc a3c7 d83b
000001c0: 9f79 3b3c a311 163d 39b9 5cbb c4b5 8a3c
000001d0: 78ee a53b 91c5 bd3a 9671 083d 6472 7f3c
000001e0: 2cd7 09bd 505b 173d 250b 7d3c b461 903c
000001f0: c352 0ebc 8e99 2f3a 8113 dabc c12d 053d
00000200: fe0e c7bc e47c 60bd beee 01bc c9be 3dbd
00000210: 21f6 823b 42de 6e3c d738 ba3a 2a20 1c3d
00000220: c61e 373b ab25 413d 01d3 e1bc 0ddb d63c
00000230: 6396 293d 9600 743c e896 133d 39df 68bc
00000240: 96a5 95bc 88bd 673d fc4d 783c f185 7b3c
00000250: 8445 25ba c548 eb3a 41a8 07bd e044 543d
00000260: 2d29 c2ba b9ed e53c 4ae0 a6bb 4069 0b3d
00000270: c13b 2dbc 1a20 71bb b3f1 693c d158 ed3c
00000280: afbe 3d3d 2863 4c3c 28a3 f43b dc7b f0bc
00000290: 99fc 3a3c 891c 66bc fb49 24bd 3e94 773b
000002a0: c0bf 533d ad0c ba3b 5f17 e33c c8fd 0b3c
000002b0: c103 86bc dc47 c83b bfeb 063d cae2 2dbd
000002c0: b20d cd3c 3081 733d 0e1a 56bc 9600 293d
000002d0: 2e19 1e3d d3a9 663c 48fb fb3b b27d 8fbb
000002e0: 3456 f53c e1ce a03c 1116 17bd 6708 f83c
000002f0: 47c7 09bc c22f 4cbc ad1b df38 faf6 33bd
00000300: a28e 15ba 5299 e6bc 32fc 01bd 5616 99bc
00000310: 7d09 c2bc a1e0 8abc 889c 243c 29d1 9abc
00000320: 8d56 26bc 8a45 253b 6f9b 2ebc 7a00 dc3c
00000330: ed88 443b 57f4 853c c02c 423c d957 4d3b
00000340: ecc0 1fbd 20a3 c13c f90b abbc 2d74 ca3c
00000350: 7126 81bd 24f8 ff3c 0eab b4bc a74a edbc
00000360: 8f1f 9a3c eeb5 523d c826 44ba fe14 113c
00000370: 12c8 4d3d f0c9 693d dfe6 863c e736 2b3b
00000380: e667 353d 3b75 93bc 1d02 28bc f985 853c
00000390: 0c35 823c e8be 82bc a9cf 4fbd d8a9 8d3c
000003a0: e6f2 c1bc ed07 0dbd 9079 3e3c 2c13 6b3d
000003b0: fe68 df3b f5a7 b23c fd6d 7c3d 22de 54ba
000003c0: f4a0 a43c 3346 773d aff1 6e3c dcef e53c
000003d0: 90a9 163d 3e80 533d 3832 3a3c 76d8 233d
000003e0: b63a 3d3d d860 143c d19c d53a 610c 603d
000003f0: db15 e43b e3e9 b43c 46ce b63c 3fa2 eabc
0.014753384 0.040539734 -0.006550994 0.026199607 -0.030789828 -0.036492348 0.0104683265 -0.030476214
0.02175062 -0.046296857 0.013249963 -0.00514551 -0.032579735 0.021082032 -0.067421354 0.02572467
-0.005916441 -0.021648522 0.01160967 -0.00982876 -0.037270885 0.0022973022 0.0010755772 0.0016244231
0.029768914 0.020487122 -0.024893356 0.03348818 -0.01939613 0.0024460377 0.013471833 0.021221451
0.035921708 0.013979787 0.056817707 0.016816631 -0.02483591 0.03705414 -0.020573547 0.014798137
-0.024134694 0.004193133 0.015212099 0.032753583 -0.015619939 0.045694616 0.024768338 0.009319355
0.036118098 -0.0122989565 0.029519139 0.040359814 -0.030077897 0.00030447074 -0.013745358 -0.029735552
-0.028373936 0.017001063 0.024699789 0.01826823 0.00819433 0.026751123 0.0121290935 0.044689175
0.03911181 -0.018016161 -0.0119721405 -0.033588476 -0.04877261 -0.011519507 -0.009191475 -0.025092855
-0.029812654 0.031026255 0.025703007 0.033163976 -0.010815711 0.05032538 0.020983053 0.043328457
0.022075575 -0.032413818 0.04996587 0.016218029 -0.0105041005 -0.010119469 0.031738102 0.029882642
0.018908614 0.057990074 -0.028862512 0.0557882 0.0064063747 0.014242578 0.033003185 0.033208683
-0.02698788 0.045783926 -0.01135782 0.037462104 0.049400255 0.027105141 -0.0064094076 0.023473395
-0.018431125 -0.02496798 -0.014300482 0.0051499265 -0.029881245 0.01689727 -0.018343125 0.0066155954
0.011442571 0.036637913 -0.0033679737 0.016932376 0.005063828 0.0014478435 0.03331145 0.015591238
-0.03365247 0.036952317 0.015444552 0.017624713 -0.008686724 0.00066986016 -0.026620628 0.032514337
-0.024299141 -0.054806605 -0.007930456 -0.046324525 0.003996626 0.014579358 0.0014207613 0.03811661
0.0027941926 0.047155064 -0.027566435 0.026227498 0.041403186 0.014892718 0.036032587 -0.014213377
-0.018267434 0.056577235 0.015155312 0.015351758 -0.0006304609 0.0017950764 -0.033119444 0.051823497
-0.0014813297 0.028067457 -0.0050926553 0.03403592 -0.0105733285 -0.0036792816 0.014278817 0.028973015
0.04632443 0.012474813 0.007465739 -0.029355936 0.011412763 -0.014044889 -0.040109616 0.0037777568
0.05169654 0.0056777806 0.027721105 0.008544393 -0.016359212 0.006112082 0.03293967 -0.04245261
0.025030944 0.059449375 -0.013067735 0.041260324 0.038598232 0.014078575 0.007689867 -0.0043789977
0.029948331 0.019629898 -0.03688628 0.030277444 -0.008409328 -0.012462558 0.00010638624 -0.043936707
-0.0005705153 -0.02814928 -0.031734653 -0.018687408 -0.023686165 -0.016952815 0.010047086 -0.018898563
-0.010152471 0.002521845 -0.010657175 0.026855696 0.002998884 0.016351862 0.01185149 0.003133288
-0.039002344 0.023637354 -0.020879732 0.0247136 -0.0630616 0.031246252 -0.022054221 -0.028966261
0.018813876 0.051443033 -0.00074825855 0.008855103 0.05023963 0.05707735 0.01646751 0.0026125254
0.04428854 -0.018000236 -0.01025441 0.016299235 0.015894435 -0.015960172 -0.05073515 0.017292902
-0.023675393 -0.034431387 0.011625662 0.05739133 0.006817936 0.021808604 0.06162833 -0.00081202586
0.02009628 0.06036968 0.014583989 0.028068475 0.0367828 0.051635973 0.011364512 0.040001355
0.04619857 0.0090562925 0.0016297345 0.054699305 0.006960613 0.022084182 0.022315156 -0.028641818

decoder.0.bias f4 [64]
00000000: 5af1 aa3b 7a00 123d 6ffa ba3c c06c 813c
00000010: 3d42 c83c 6c1c 533b 1ebb 9f3c cd91 073d
00000020: 6177 303d c454 2e3d ed3b 373c 6493 343d
00000030: f2ce 2c3d 79d5 2d3d 9998 103d 84bb ee3c
00000040: 9716 b23c 3c05 703c df90 01bb df7c 013d
00000050: 8998 2e3d 0c1d e13b fbeb be3c 4449 1d3d
00000060: ebc5 0d3d 1d29 183c 7312 3d3d 6b5f 393d
00000070: 4560 353d e45f 843b 5aac 1d3d d942 f43c
00000080: 64a4 243b 4f91 a43c ed66 0c3d e902 d23c
00000090: 2687 263d 70a9 7d3b d501 14bd 66b7 923c
000000a0: 2112 8a3c 0678 ec3a 81f0 413d 6d9a ca3c
000000b0: 3ff9 af3d 0bdf 353d ebc0 433b 380b 073b
000000c0: f0be 08bd a79f d93c c616 963c 92d9 283c
000000d0: 88b1 a03b f168 153d 117d f43c dd2f 663d
000000e0: 749b e13c 8ccf 833c 277c f03c 5643 843c
000000f0: c94b c03b 9432 a93c b90b 383c e527 5c3c
0.0052167596 0.035644986 0.022824494 0.015798926 0.024445647 0.0032212986 0.019498404 0.03309803
0.0430826 0.042561308 0.011183721 0.044085875 0.042189546 0.04243991 0.03530178 0.029142149
0.021739287 0.0146496855 -0.0019770188 0.031613227 0.042625938 0.0068699177 0.023305884 0.03839995
0.034612577 0.009287146 0.046160173 0.045257013 0.044281263 0.0040397514 0.038494445 0.029817032
0.0025122399 0.02008882 0.034277845 0.025636153 0.04065623 0.003870573 -0.03613456 0.017909717
0.016854348 0.0018041141 0.047348503 0.02473184 0.08592462 0.044402163 0.0029869627 0.0020606052
-0.033385217 0.026565386 0.018321406 0.010305779 0.004903976 0.036477033 0.029844793 0.05619799
0.027539946 0.016090177 0.029356075 0.01614539 0.0058684093 0.020654 0.011233264 0.013437246
